{"format": "layers-model", "generatedBy": "keras v2.4.0", "convertedBy": "TensorFlow.js Converter v2.7.0", "modelTopology": {"keras_version": "2.4.0", "backend": "tensorflow", "model_config": {"class_name": "Functional", "config": {"name": "functional_1", "layers": [{"class_name": "InputLayer", "config": {"batch_input_shape": [null, 299, 299, 3], "dtype": "float32", "sparse": false, "ragged": false, "name": "input_2"}, "name": "input_2", "inbound_nodes": []}, {"class_name": "Conv2D", "config": {"name": "conv2d_216", "trainable": true, "dtype": "float32", "filters": 32, "kernel_size": [3, 3], "strides": [2, 2], "padding": "valid", "data_format": "channels_last", "dilation_rate": [1, 1], "groups": 1, "activation": "linear", "use_bias": false, "kernel_initializer": {"class_name": "GlorotUniform", "config": {"seed": null}}, "bias_initializer": {"class_name": "Zeros", "config": {}}, "kernel_regularizer": null, "bias_regularizer": null, "activity_regularizer": null, "kernel_constraint": null, "bias_constraint": null}, "name": "conv2d_216", "inbound_nodes": [[["input_2", 0, 0, {}]]]}, {"class_name": "BatchNormalization", "config": {"name": "batch_normalization_208", "trainable": true, "dtype": "float32", "axis": [3], "momentum": 0.99, "epsilon": 0.001, "center": true, "scale": false, "beta_initializer": {"class_name": "Zeros", "config": {}}, "gamma_initializer": {"class_name": "Ones", "config": {}}, "moving_mean_initializer": {"class_name": "Zeros", "config": {}}, "moving_variance_initializer": {"class_name": "Ones", "config": {}}, "beta_regularizer": null, "gamma_regularizer": null, "beta_constraint": null, "gamma_constraint": null}, "name": "batch_normalization_208", "inbound_nodes": [[["conv2d_216", 0, 0, {}]]]}, {"class_name": "Activation", "config": {"name": "activation_203", "trainable": true, "dtype": "float32", "activation": "relu"}, "name": "activation_203", "inbound_nodes": [[["batch_normalization_208", 0, 0, {}]]]}, {"class_name": "Conv2D", "config": {"name": "conv2d_217", "trainable": true, "dtype": "float32", "filters": 32, "kernel_size": [3, 3], "strides": [1, 1], "padding": "valid", "data_format": "channels_last", "dilation_rate": [1, 1], "groups": 1, "activation": "linear", "use_bias": false, "kernel_initializer": {"class_name": "GlorotUniform", "config": {"seed": null}}, "bias_initializer": {"class_name": "Zeros", "config": {}}, "kernel_regularizer": null, "bias_regularizer": null, "activity_regularizer": null, "kernel_constraint": null, "bias_constraint": null}, "name": "conv2d_217", "inbound_nodes": [[["activation_203", 0, 0, {}]]]}, {"class_name": "BatchNormalization", "config": {"name": "batch_normalization_209", "trainable": true, "dtype": "float32", "axis": [3], "momentum": 0.99, "epsilon": 0.001, "center": true, "scale": false, "beta_initializer": {"class_name": "Zeros", "config": {}}, "gamma_initializer": {"class_name": "Ones", "config": {}}, "moving_mean_initializer": {"class_name": "Zeros", "config": {}}, "moving_variance_initializer": {"class_name": "Ones", "config": {}}, "beta_regularizer": null, "gamma_regularizer": null, "beta_constraint": null, "gamma_constraint": null}, "name": "batch_normalization_209", "inbound_nodes": [[["conv2d_217", 0, 0, {}]]]}, {"class_name": "Activation", "config": {"name": "activation_204", "trainable": true, "dtype": "float32", "activation": "relu"}, "name": "activation_204", "inbound_nodes": [[["batch_normalization_209", 0, 0, {}]]]}, {"class_name": "Conv2D", "config": {"name": "conv2d_218", "trainable": true, "dtype": "float32", "filters": 64, "kernel_size": [3, 3], "strides": [1, 1], "padding": "same", "data_format": "channels_last", "dilation_rate": [1, 1], "groups": 1, "activation": "linear", "use_bias": false, "kernel_initializer": {"class_name": "GlorotUniform", "config": {"seed": null}}, "bias_initializer": {"class_name": "Zeros", "config": {}}, "kernel_regularizer": null, "bias_regularizer": null, "activity_regularizer": null, "kernel_constraint": null, "bias_constraint": null}, "name": "conv2d_218", "inbound_nodes": [[["activation_204", 0, 0, {}]]]}, {"class_name": "BatchNormalization", "config": {"name": "batch_normalization_210", "trainable": true, "dtype": "float32", "axis": [3], "momentum": 0.99, "epsilon": 0.001, "center": true, "scale": false, "beta_initializer": {"class_name": "Zeros", "config": {}}, "gamma_initializer": {"class_name": "Ones", "config": {}}, "moving_mean_initializer": {"class_name": "Zeros", "config": {}}, "moving_variance_initializer": {"class_name": "Ones", "config": {}}, "beta_regularizer": null, "gamma_regularizer": null, "beta_constraint": null, "gamma_constraint": null}, "name": "batch_normalization_210", "inbound_nodes": [[["conv2d_218", 0, 0, {}]]]}, {"class_name": "Activation", "config": {"name": "activation_205", "trainable": true, "dtype": "float32", "activation": "relu"}, "name": "activation_205", "inbound_nodes": [[["batch_normalization_210", 0, 0, {}]]]}, {"class_name": "MaxPooling2D", "config": {"name": "max_pooling2d_6", "trainable": true, "dtype": "float32", "pool_size": [3, 3], "padding": "valid", "strides": [2, 2], "data_format": "channels_last"}, "name": "max_pooling2d_6", "inbound_nodes": [[["activation_205", 0, 0, {}]]]}, {"class_name": "Conv2D", "config": {"name": "conv2d_219", "trainable": true, "dtype": "float32", "filters": 80, "kernel_size": [1, 1], "strides": [1, 1], "padding": "valid", "data_format": "channels_last", "dilation_rate": [1, 1], "groups": 1, "activation": "linear", "use_bias": false, "kernel_initializer": {"class_name": "GlorotUniform", "config": {"seed": null}}, "bias_initializer": {"class_name": "Zeros", "config": {}}, "kernel_regularizer": null, "bias_regularizer": null, "activity_regularizer": null, "kernel_constraint": null, "bias_constraint": null}, "name": "conv2d_219", "inbound_nodes": [[["max_pooling2d_6", 0, 0, {}]]]}, {"class_name": "BatchNormalization", "config": {"name": "batch_normalization_211", "trainable": true, "dtype": "float32", "axis": [3], "momentum": 0.99, "epsilon": 0.001, "center": true, "scale": false, "beta_initializer": {"class_name": "Zeros", "config": {}}, "gamma_initializer": {"class_name": "Ones", "config": {}}, "moving_mean_initializer": {"class_name": "Zeros", "config": {}}, "moving_variance_initializer": {"class_name": "Ones", "config": {}}, "beta_regularizer": null, "gamma_regularizer": null, "beta_constraint": null, "gamma_constraint": null}, "name": "batch_normalization_211", "inbound_nodes": [[["conv2d_219", 0, 0, {}]]]}, {"class_name": "Activation", "config": {"name": "activation_206", "trainable": true, "dtype": "float32", "activation": "relu"}, "name": "activation_206", "inbound_nodes": [[["batch_normalization_211", 0, 0, {}]]]}, {"class_name": "Conv2D", "config": {"name": "conv2d_220", "trainable": true, "dtype": "float32", "filters": 192, "kernel_size": [3, 3], "strides": [1, 1], "padding": "valid", "data_format": "channels_last", "dilation_rate": [1, 1], "groups": 1, "activation": "linear", "use_bias": false, "kernel_initializer": {"class_name": "GlorotUniform", "config": {"seed": null}}, "bias_initializer": {"class_name": "Zeros", "config": {}}, "kernel_regularizer": null, "bias_regularizer": null, "activity_regularizer": null, "kernel_constraint": null, "bias_constraint": null}, "name": "conv2d_220", "inbound_nodes": [[["activation_206", 0, 0, {}]]]}, {"class_name": "BatchNormalization", "config": {"name": "batch_normalization_212", "trainable": true, "dtype": "float32", "axis": [3], "momentum": 0.99, "epsilon": 0.001, "center": true, "scale": false, "beta_initializer": {"class_name": "Zeros", "config": {}}, "gamma_initializer": {"class_name": "Ones", "config": {}}, "moving_mean_initializer": {"class_name": "Zeros", "config": {}}, "moving_variance_initializer": {"class_name": "Ones", "config": {}}, "beta_regularizer": null, "gamma_regularizer": null, "beta_constraint": null, "gamma_constraint": null}, "name": "batch_normalization_212", "inbound_nodes": [[["conv2d_220", 0, 0, {}]]]}, {"class_name": "Activation", "config": {"name": "activation_207", "trainable": true, "dtype": "float32", "activation": "relu"}, "name": "activation_207", "inbound_nodes": [[["batch_normalization_212", 0, 0, {}]]]}, {"class_name": "MaxPooling2D", "config": {"name": "max_pooling2d_7", "trainable": true, "dtype": "float32", "pool_size": [3, 3], "padding": "valid", "strides": [2, 2], "data_format": "channels_last"}, "name": "max_pooling2d_7", "inbound_nodes": [[["activation_207", 0, 0, {}]]]}, {"class_name": "Conv2D", "config": {"name": "conv2d_224", "trainable": true, "dtype": "float32", "filters": 64, "kernel_size": [1, 1], "strides": [1, 1], "padding": "same", "data_format": "channels_last", "dilation_rate": [1, 1], "groups": 1, "activation": "linear", "use_bias": false, "kernel_initializer": {"class_name": "GlorotUniform", "config": {"seed": null}}, "bias_initializer": {"class_name": "Zeros", "config": {}}, "kernel_regularizer": null, "bias_regularizer": null, "activity_regularizer": null, "kernel_constraint": null, "bias_constraint": null}, "name": "conv2d_224", "inbound_nodes": [[["max_pooling2d_7", 0, 0, {}]]]}, {"class_name": "BatchNormalization", "config": {"name": "batch_normalization_216", "trainable": true, "dtype": "float32", "axis": [3], "momentum": 0.99, "epsilon": 0.001, "center": true, "scale": false, "beta_initializer": {"class_name": "Zeros", "config": {}}, "gamma_initializer": {"class_name": "Ones", "config": {}}, "moving_mean_initializer": {"class_name": "Zeros", "config": {}}, "moving_variance_initializer": {"class_name": "Ones", "config": {}}, "beta_regularizer": null, "gamma_regularizer": null, "beta_constraint": null, "gamma_constraint": null}, "name": "batch_normalization_216", "inbound_nodes": [[["conv2d_224", 0, 0, {}]]]}, {"class_name": "Activation", "config": {"name": "activation_211", "trainable": true, "dtype": "float32", "activation": "relu"}, "name": "activation_211", "inbound_nodes": [[["batch_normalization_216", 0, 0, {}]]]}, {"class_name": "Conv2D", "config": {"name": "conv2d_222", "trainable": true, "dtype": "float32", "filters": 48, "kernel_size": [1, 1], "strides": [1, 1], "padding": "same", "data_format": "channels_last", "dilation_rate": [1, 1], "groups": 1, "activation": "linear", "use_bias": false, "kernel_initializer": {"class_name": "GlorotUniform", "config": {"seed": null}}, "bias_initializer": {"class_name": "Zeros", "config": {}}, "kernel_regularizer": null, "bias_regularizer": null, "activity_regularizer": null, "kernel_constraint": null, "bias_constraint": null}, "name": "conv2d_222", "inbound_nodes": [[["max_pooling2d_7", 0, 0, {}]]]}, {"class_name": "Conv2D", "config": {"name": "conv2d_225", "trainable": true, "dtype": "float32", "filters": 96, "kernel_size": [3, 3], "strides": [1, 1], "padding": "same", "data_format": "channels_last", "dilation_rate": [1, 1], "groups": 1, "activation": "linear", "use_bias": false, "kernel_initializer": {"class_name": "GlorotUniform", "config": {"seed": null}}, "bias_initializer": {"class_name": "Zeros", "config": {}}, "kernel_regularizer": null, "bias_regularizer": null, "activity_regularizer": null, "kernel_constraint": null, "bias_constraint": null}, "name": "conv2d_225", "inbound_nodes": [[["activation_211", 0, 0, {}]]]}, {"class_name": "BatchNormalization", "config": {"name": "batch_normalization_214", "trainable": true, "dtype": "float32", "axis": [3], "momentum": 0.99, "epsilon": 0.001, "center": true, "scale": false, "beta_initializer": {"class_name": "Zeros", "config": {}}, "gamma_initializer": {"class_name": "Ones", "config": {}}, "moving_mean_initializer": {"class_name": "Zeros", "config": {}}, "moving_variance_initializer": {"class_name": "Ones", "config": {}}, "beta_regularizer": null, "gamma_regularizer": null, "beta_constraint": null, "gamma_constraint": null}, "name": "batch_normalization_214", "inbound_nodes": [[["conv2d_222", 0, 0, {}]]]}, {"class_name": "BatchNormalization", "config": {"name": "batch_normalization_217", "trainable": true, "dtype": "float32", "axis": [3], "momentum": 0.99, "epsilon": 0.001, "center": true, "scale": false, "beta_initializer": {"class_name": "Zeros", "config": {}}, "gamma_initializer": {"class_name": "Ones", "config": {}}, "moving_mean_initializer": {"class_name": "Zeros", "config": {}}, "moving_variance_initializer": {"class_name": "Ones", "config": {}}, "beta_regularizer": null, "gamma_regularizer": null, "beta_constraint": null, "gamma_constraint": null}, "name": "batch_normalization_217", "inbound_nodes": [[["conv2d_225", 0, 0, {}]]]}, {"class_name": "Activation", "config": {"name": "activation_209", "trainable": true, "dtype": "float32", "activation": "relu"}, "name": "activation_209", "inbound_nodes": [[["batch_normalization_214", 0, 0, {}]]]}, {"class_name": "Activation", "config": {"name": "activation_212", "trainable": true, "dtype": "float32", "activation": "relu"}, "name": "activation_212", "inbound_nodes": [[["batch_normalization_217", 0, 0, {}]]]}, {"class_name": "AveragePooling2D", "config": {"name": "average_pooling2d_1", "trainable": true, "dtype": "float32", "pool_size": [3, 3], "padding": "same", "strides": [1, 1], "data_format": "channels_last"}, "name": "average_pooling2d_1", "inbound_nodes": [[["max_pooling2d_7", 0, 0, {}]]]}, {"class_name": "Conv2D", "config": {"name": "conv2d_221", "trainable": true, "dtype": "float32", "filters": 64, "kernel_size": [1, 1], "strides": [1, 1], "padding": "same", "data_format": "channels_last", "dilation_rate": [1, 1], "groups": 1, "activation": "linear", "use_bias": false, "kernel_initializer": {"class_name": "GlorotUniform", "config": {"seed": null}}, "bias_initializer": {"class_name": "Zeros", "config": {}}, "kernel_regularizer": null, "bias_regularizer": null, "activity_regularizer": null, "kernel_constraint": null, "bias_constraint": null}, "name": "conv2d_221", "inbound_nodes": [[["max_pooling2d_7", 0, 0, {}]]]}, {"class_name": "Conv2D", "config": {"name": "conv2d_223", "trainable": true, "dtype": "float32", "filters": 64, "kernel_size": [5, 5], "strides": [1, 1], "padding": "same", "data_format": "channels_last", "dilation_rate": [1, 1], "groups": 1, "activation": "linear", "use_bias": false, "kernel_initializer": {"class_name": "GlorotUniform", "config": {"seed": null}}, "bias_initializer": {"class_name": "Zeros", "config": {}}, "kernel_regularizer": null, "bias_regularizer": null, "activity_regularizer": null, "kernel_constraint": null, "bias_constraint": null}, "name": "conv2d_223", "inbound_nodes": [[["activation_209", 0, 0, {}]]]}, {"class_name": "Conv2D", "config": {"name": "conv2d_226", "trainable": true, "dtype": "float32", "filters": 96, "kernel_size": [3, 3], "strides": [1, 1], "padding": "same", "data_format": "channels_last", "dilation_rate": [1, 1], "groups": 1, "activation": "linear", "use_bias": false, "kernel_initializer": {"class_name": "GlorotUniform", "config": {"seed": null}}, "bias_initializer": {"class_name": "Zeros", "config": {}}, "kernel_regularizer": null, "bias_regularizer": null, "activity_regularizer": null, "kernel_constraint": null, "bias_constraint": null}, "name": "conv2d_226", "inbound_nodes": [[["activation_212", 0, 0, {}]]]}, {"class_name": "Conv2D", "config": {"name": "conv2d_227", "trainable": true, "dtype": "float32", "filters": 32, "kernel_size": [1, 1], "strides": [1, 1], "padding": "same", "data_format": "channels_last", "dilation_rate": [1, 1], "groups": 1, "activation": "linear", "use_bias": false, "kernel_initializer": {"class_name": "GlorotUniform", "config": {"seed": null}}, "bias_initializer": {"class_name": "Zeros", "config": {}}, "kernel_regularizer": null, "bias_regularizer": null, "activity_regularizer": null, "kernel_constraint": null, "bias_constraint": null}, "name": "conv2d_227", "inbound_nodes": [[["average_pooling2d_1", 0, 0, {}]]]}, {"class_name": "BatchNormalization", "config": {"name": "batch_normalization_213", "trainable": true, "dtype": "float32", "axis": [3], "momentum": 0.99, "epsilon": 0.001, "center": true, "scale": false, "beta_initializer": {"class_name": "Zeros", "config": {}}, "gamma_initializer": {"class_name": "Ones", "config": {}}, "moving_mean_initializer": {"class_name": "Zeros", "config": {}}, "moving_variance_initializer": {"class_name": "Ones", "config": {}}, "beta_regularizer": null, "gamma_regularizer": null, "beta_constraint": null, "gamma_constraint": null}, "name": "batch_normalization_213", "inbound_nodes": [[["conv2d_221", 0, 0, {}]]]}, {"class_name": "BatchNormalization", "config": {"name": "batch_normalization_215", "trainable": true, "dtype": "float32", "axis": [3], "momentum": 0.99, "epsilon": 0.001, "center": true, "scale": false, "beta_initializer": {"class_name": "Zeros", "config": {}}, "gamma_initializer": {"class_name": "Ones", "config": {}}, "moving_mean_initializer": {"class_name": "Zeros", "config": {}}, "moving_variance_initializer": {"class_name": "Ones", "config": {}}, "beta_regularizer": null, "gamma_regularizer": null, "beta_constraint": null, "gamma_constraint": null}, "name": "batch_normalization_215", "inbound_nodes": [[["conv2d_223", 0, 0, {}]]]}, {"class_name": "BatchNormalization", "config": {"name": "batch_normalization_218", "trainable": true, "dtype": "float32", "axis": [3], "momentum": 0.99, "epsilon": 0.001, "center": true, "scale": false, "beta_initializer": {"class_name": "Zeros", "config": {}}, "gamma_initializer": {"class_name": "Ones", "config": {}}, "moving_mean_initializer": {"class_name": "Zeros", "config": {}}, "moving_variance_initializer": {"class_name": "Ones", "config": {}}, "beta_regularizer": null, "gamma_regularizer": null, "beta_constraint": null, "gamma_constraint": null}, "name": "batch_normalization_218", "inbound_nodes": [[["conv2d_226", 0, 0, {}]]]}, {"class_name": "BatchNormalization", "config": {"name": "batch_normalization_219", "trainable": true, "dtype": "float32", "axis": [3], "momentum": 0.99, "epsilon": 0.001, "center": true, "scale": false, "beta_initializer": {"class_name": "Zeros", "config": {}}, "gamma_initializer": {"class_name": "Ones", "config": {}}, "moving_mean_initializer": {"class_name": "Zeros", "config": {}}, "moving_variance_initializer": {"class_name": "Ones", "config": {}}, "beta_regularizer": null, "gamma_regularizer": null, "beta_constraint": null, "gamma_constraint": null}, "name": "batch_normalization_219", "inbound_nodes": [[["conv2d_227", 0, 0, {}]]]}, {"class_name": "Activation", "config": {"name": "activation_208", "trainable": true, "dtype": "float32", "activation": "relu"}, "name": "activation_208", "inbound_nodes": [[["batch_normalization_213", 0, 0, {}]]]}, {"class_name": "Activation", "config": {"name": "activation_210", "trainable": true, "dtype": "float32", "activation": "relu"}, "name": "activation_210", "inbound_nodes": [[["batch_normalization_215", 0, 0, {}]]]}, {"class_name": "Activation", "config": {"name": "activation_213", "trainable": true, "dtype": "float32", "activation": "relu"}, "name": "activation_213", "inbound_nodes": [[["batch_normalization_218", 0, 0, {}]]]}, {"class_name": "Activation", "config": {"name": "activation_214", "trainable": true, "dtype": "float32", "activation": "relu"}, "name": "activation_214", "inbound_nodes": [[["batch_normalization_219", 0, 0, {}]]]}, {"class_name": "Concatenate", "config": {"name": "mixed0", "trainable": true, "dtype": "float32", "axis": 3}, "name": "mixed0", "inbound_nodes": [[["activation_208", 0, 0, {}], ["activation_210", 0, 0, {}], ["activation_213", 0, 0, {}], ["activation_214", 0, 0, {}]]]}, {"class_name": "Conv2D", "config": {"name": "conv2d_231", "trainable": true, "dtype": "float32", "filters": 64, "kernel_size": [1, 1], "strides": [1, 1], "padding": "same", "data_format": "channels_last", "dilation_rate": [1, 1], "groups": 1, "activation": "linear", "use_bias": false, "kernel_initializer": {"class_name": "GlorotUniform", "config": {"seed": null}}, "bias_initializer": {"class_name": "Zeros", "config": {}}, "kernel_regularizer": null, "bias_regularizer": null, "activity_regularizer": null, "kernel_constraint": null, "bias_constraint": null}, "name": "conv2d_231", "inbound_nodes": [[["mixed0", 0, 0, {}]]]}, {"class_name": "BatchNormalization", "config": {"name": "batch_normalization_223", "trainable": true, "dtype": "float32", "axis": [3], "momentum": 0.99, "epsilon": 0.001, "center": true, "scale": false, "beta_initializer": {"class_name": "Zeros", "config": {}}, "gamma_initializer": {"class_name": "Ones", "config": {}}, "moving_mean_initializer": {"class_name": "Zeros", "config": {}}, "moving_variance_initializer": {"class_name": "Ones", "config": {}}, "beta_regularizer": null, "gamma_regularizer": null, "beta_constraint": null, "gamma_constraint": null}, "name": "batch_normalization_223", "inbound_nodes": [[["conv2d_231", 0, 0, {}]]]}, {"class_name": "Activation", "config": {"name": "activation_218", "trainable": true, "dtype": "float32", "activation": "relu"}, "name": "activation_218", "inbound_nodes": [[["batch_normalization_223", 0, 0, {}]]]}, {"class_name": "Conv2D", "config": {"name": "conv2d_229", "trainable": true, "dtype": "float32", "filters": 48, "kernel_size": [1, 1], "strides": [1, 1], "padding": "same", "data_format": "channels_last", "dilation_rate": [1, 1], "groups": 1, "activation": "linear", "use_bias": false, "kernel_initializer": {"class_name": "GlorotUniform", "config": {"seed": null}}, "bias_initializer": {"class_name": "Zeros", "config": {}}, "kernel_regularizer": null, "bias_regularizer": null, "activity_regularizer": null, "kernel_constraint": null, "bias_constraint": null}, "name": "conv2d_229", "inbound_nodes": [[["mixed0", 0, 0, {}]]]}, {"class_name": "Conv2D", "config": {"name": "conv2d_232", "trainable": true, "dtype": "float32", "filters": 96, "kernel_size": [3, 3], "strides": [1, 1], "padding": "same", "data_format": "channels_last", "dilation_rate": [1, 1], "groups": 1, "activation": "linear", "use_bias": false, "kernel_initializer": {"class_name": "GlorotUniform", "config": {"seed": null}}, "bias_initializer": {"class_name": "Zeros", "config": {}}, "kernel_regularizer": null, "bias_regularizer": null, "activity_regularizer": null, "kernel_constraint": null, "bias_constraint": null}, "name": "conv2d_232", "inbound_nodes": [[["activation_218", 0, 0, {}]]]}, {"class_name": "BatchNormalization", "config": {"name": "batch_normalization_221", "trainable": true, "dtype": "float32", "axis": [3], "momentum": 0.99, "epsilon": 0.001, "center": true, "scale": false, "beta_initializer": {"class_name": "Zeros", "config": {}}, "gamma_initializer": {"class_name": "Ones", "config": {}}, "moving_mean_initializer": {"class_name": "Zeros", "config": {}}, "moving_variance_initializer": {"class_name": "Ones", "config": {}}, "beta_regularizer": null, "gamma_regularizer": null, "beta_constraint": null, "gamma_constraint": null}, "name": "batch_normalization_221", "inbound_nodes": [[["conv2d_229", 0, 0, {}]]]}, {"class_name": "BatchNormalization", "config": {"name": "batch_normalization_224", "trainable": true, "dtype": "float32", "axis": [3], "momentum": 0.99, "epsilon": 0.001, "center": true, "scale": false, "beta_initializer": {"class_name": "Zeros", "config": {}}, "gamma_initializer": {"class_name": "Ones", "config": {}}, "moving_mean_initializer": {"class_name": "Zeros", "config": {}}, "moving_variance_initializer": {"class_name": "Ones", "config": {}}, "beta_regularizer": null, "gamma_regularizer": null, "beta_constraint": null, "gamma_constraint": null}, "name": "batch_normalization_224", "inbound_nodes": [[["conv2d_232", 0, 0, {}]]]}, {"class_name": "Activation", "config": {"name": "activation_216", "trainable": true, "dtype": "float32", "activation": "relu"}, "name": "activation_216", "inbound_nodes": [[["batch_normalization_221", 0, 0, {}]]]}, {"class_name": "Activation", "config": {"name": "activation_219", "trainable": true, "dtype": "float32", "activation": "relu"}, "name": "activation_219", "inbound_nodes": [[["batch_normalization_224", 0, 0, {}]]]}, {"class_name": "AveragePooling2D", "config": {"name": "average_pooling2d_2", "trainable": true, "dtype": "float32", "pool_size": [3, 3], "padding": "same", "strides": [1, 1], "data_format": "channels_last"}, "name": "average_pooling2d_2", "inbound_nodes": [[["mixed0", 0, 0, {}]]]}, {"class_name": "Conv2D", "config": {"name": "conv2d_228", "trainable": true, "dtype": "float32", "filters": 64, "kernel_size": [1, 1], "strides": [1, 1], "padding": "same", "data_format": "channels_last", "dilation_rate": [1, 1], "groups": 1, "activation": "linear", "use_bias": false, "kernel_initializer": {"class_name": "GlorotUniform", "config": {"seed": null}}, "bias_initializer": {"class_name": "Zeros", "config": {}}, "kernel_regularizer": null, "bias_regularizer": null, "activity_regularizer": null, "kernel_constraint": null, "bias_constraint": null}, "name": "conv2d_228", "inbound_nodes": [[["mixed0", 0, 0, {}]]]}, {"class_name": "Conv2D", "config": {"name": "conv2d_230", "trainable": true, "dtype": "float32", "filters": 64, "kernel_size": [5, 5], "strides": [1, 1], "padding": "same", "data_format": "channels_last", "dilation_rate": [1, 1], "groups": 1, "activation": "linear", "use_bias": false, "kernel_initializer": {"class_name": "GlorotUniform", "config": {"seed": null}}, "bias_initializer": {"class_name": "Zeros", "config": {}}, "kernel_regularizer": null, "bias_regularizer": null, "activity_regularizer": null, "kernel_constraint": null, "bias_constraint": null}, "name": "conv2d_230", "inbound_nodes": [[["activation_216", 0, 0, {}]]]}, {"class_name": "Conv2D", "config": {"name": "conv2d_233", "trainable": true, "dtype": "float32", "filters": 96, "kernel_size": [3, 3], "strides": [1, 1], "padding": "same", "data_format": "channels_last", "dilation_rate": [1, 1], "groups": 1, "activation": "linear", "use_bias": false, "kernel_initializer": {"class_name": "GlorotUniform", "config": {"seed": null}}, "bias_initializer": {"class_name": "Zeros", "config": {}}, "kernel_regularizer": null, "bias_regularizer": null, "activity_regularizer": null, "kernel_constraint": null, "bias_constraint": null}, "name": "conv2d_233", "inbound_nodes": [[["activation_219", 0, 0, {}]]]}, {"class_name": "Conv2D", "config": {"name": "conv2d_234", "trainable": true, "dtype": "float32", "filters": 64, "kernel_size": [1, 1], "strides": [1, 1], "padding": "same", "data_format": "channels_last", "dilation_rate": [1, 1], "groups": 1, "activation": "linear", "use_bias": false, "kernel_initializer": {"class_name": "GlorotUniform", "config": {"seed": null}}, "bias_initializer": {"class_name": "Zeros", "config": {}}, "kernel_regularizer": null, "bias_regularizer": null, "activity_regularizer": null, "kernel_constraint": null, "bias_constraint": null}, "name": "conv2d_234", "inbound_nodes": [[["average_pooling2d_2", 0, 0, {}]]]}, {"class_name": "BatchNormalization", "config": {"name": "batch_normalization_220", "trainable": true, "dtype": "float32", "axis": [3], "momentum": 0.99, "epsilon": 0.001, "center": true, "scale": false, "beta_initializer": {"class_name": "Zeros", "config": {}}, "gamma_initializer": {"class_name": "Ones", "config": {}}, "moving_mean_initializer": {"class_name": "Zeros", "config": {}}, "moving_variance_initializer": {"class_name": "Ones", "config": {}}, "beta_regularizer": null, "gamma_regularizer": null, "beta_constraint": null, "gamma_constraint": null}, "name": "batch_normalization_220", "inbound_nodes": [[["conv2d_228", 0, 0, {}]]]}, {"class_name": "BatchNormalization", "config": {"name": "batch_normalization_222", "trainable": true, "dtype": "float32", "axis": [3], "momentum": 0.99, "epsilon": 0.001, "center": true, "scale": false, "beta_initializer": {"class_name": "Zeros", "config": {}}, "gamma_initializer": {"class_name": "Ones", "config": {}}, "moving_mean_initializer": {"class_name": "Zeros", "config": {}}, "moving_variance_initializer": {"class_name": "Ones", "config": {}}, "beta_regularizer": null, "gamma_regularizer": null, "beta_constraint": null, "gamma_constraint": null}, "name": "batch_normalization_222", "inbound_nodes": [[["conv2d_230", 0, 0, {}]]]}, {"class_name": "BatchNormalization", "config": {"name": "batch_normalization_225", "trainable": true, "dtype": "float32", "axis": [3], "momentum": 0.99, "epsilon": 0.001, "center": true, "scale": false, "beta_initializer": {"class_name": "Zeros", "config": {}}, "gamma_initializer": {"class_name": "Ones", "config": {}}, "moving_mean_initializer": {"class_name": "Zeros", "config": {}}, "moving_variance_initializer": {"class_name": "Ones", "config": {}}, "beta_regularizer": null, "gamma_regularizer": null, "beta_constraint": null, "gamma_constraint": null}, "name": "batch_normalization_225", "inbound_nodes": [[["conv2d_233", 0, 0, {}]]]}, {"class_name": "BatchNormalization", "config": {"name": "batch_normalization_226", "trainable": true, "dtype": "float32", "axis": [3], "momentum": 0.99, "epsilon": 0.001, "center": true, "scale": false, "beta_initializer": {"class_name": "Zeros", "config": {}}, "gamma_initializer": {"class_name": "Ones", "config": {}}, "moving_mean_initializer": {"class_name": "Zeros", "config": {}}, "moving_variance_initializer": {"class_name": "Ones", "config": {}}, "beta_regularizer": null, "gamma_regularizer": null, "beta_constraint": null, "gamma_constraint": null}, "name": "batch_normalization_226", "inbound_nodes": [[["conv2d_234", 0, 0, {}]]]}, {"class_name": "Activation", "config": {"name": "activation_215", "trainable": true, "dtype": "float32", "activation": "relu"}, "name": "activation_215", "inbound_nodes": [[["batch_normalization_220", 0, 0, {}]]]}, {"class_name": "Activation", "config": {"name": "activation_217", "trainable": true, "dtype": "float32", "activation": "relu"}, "name": "activation_217", "inbound_nodes": [[["batch_normalization_222", 0, 0, {}]]]}, {"class_name": "Activation", "config": {"name": "activation_220", "trainable": true, "dtype": "float32", "activation": "relu"}, "name": "activation_220", "inbound_nodes": [[["batch_normalization_225", 0, 0, {}]]]}, {"class_name": "Activation", "config": {"name": "activation_221", "trainable": true, "dtype": "float32", "activation": "relu"}, "name": "activation_221", "inbound_nodes": [[["batch_normalization_226", 0, 0, {}]]]}, {"class_name": "Concatenate", "config": {"name": "mixed1", "trainable": true, "dtype": "float32", "axis": 3}, "name": "mixed1", "inbound_nodes": [[["activation_215", 0, 0, {}], ["activation_217", 0, 0, {}], ["activation_220", 0, 0, {}], ["activation_221", 0, 0, {}]]]}, {"class_name": "Conv2D", "config": {"name": "conv2d_238", "trainable": true, "dtype": "float32", "filters": 64, "kernel_size": [1, 1], "strides": [1, 1], "padding": "same", "data_format": "channels_last", "dilation_rate": [1, 1], "groups": 1, "activation": "linear", "use_bias": false, "kernel_initializer": {"class_name": "GlorotUniform", "config": {"seed": null}}, "bias_initializer": {"class_name": "Zeros", "config": {}}, "kernel_regularizer": null, "bias_regularizer": null, "activity_regularizer": null, "kernel_constraint": null, "bias_constraint": null}, "name": "conv2d_238", "inbound_nodes": [[["mixed1", 0, 0, {}]]]}, {"class_name": "BatchNormalization", "config": {"name": "batch_normalization_230", "trainable": true, "dtype": "float32", "axis": [3], "momentum": 0.99, "epsilon": 0.001, "center": true, "scale": false, "beta_initializer": {"class_name": "Zeros", "config": {}}, "gamma_initializer": {"class_name": "Ones", "config": {}}, "moving_mean_initializer": {"class_name": "Zeros", "config": {}}, "moving_variance_initializer": {"class_name": "Ones", "config": {}}, "beta_regularizer": null, "gamma_regularizer": null, "beta_constraint": null, "gamma_constraint": null}, "name": "batch_normalization_230", "inbound_nodes": [[["conv2d_238", 0, 0, {}]]]}, {"class_name": "Activation", "config": {"name": "activation_225", "trainable": true, "dtype": "float32", "activation": "relu"}, "name": "activation_225", "inbound_nodes": [[["batch_normalization_230", 0, 0, {}]]]}, {"class_name": "Conv2D", "config": {"name": "conv2d_236", "trainable": true, "dtype": "float32", "filters": 48, "kernel_size": [1, 1], "strides": [1, 1], "padding": "same", "data_format": "channels_last", "dilation_rate": [1, 1], "groups": 1, "activation": "linear", "use_bias": false, "kernel_initializer": {"class_name": "GlorotUniform", "config": {"seed": null}}, "bias_initializer": {"class_name": "Zeros", "config": {}}, "kernel_regularizer": null, "bias_regularizer": null, "activity_regularizer": null, "kernel_constraint": null, "bias_constraint": null}, "name": "conv2d_236", "inbound_nodes": [[["mixed1", 0, 0, {}]]]}, {"class_name": "Conv2D", "config": {"name": "conv2d_239", "trainable": true, "dtype": "float32", "filters": 96, "kernel_size": [3, 3], "strides": [1, 1], "padding": "same", "data_format": "channels_last", "dilation_rate": [1, 1], "groups": 1, "activation": "linear", "use_bias": false, "kernel_initializer": {"class_name": "GlorotUniform", "config": {"seed": null}}, "bias_initializer": {"class_name": "Zeros", "config": {}}, "kernel_regularizer": null, "bias_regularizer": null, "activity_regularizer": null, "kernel_constraint": null, "bias_constraint": null}, "name": "conv2d_239", "inbound_nodes": [[["activation_225", 0, 0, {}]]]}, {"class_name": "BatchNormalization", "config": {"name": "batch_normalization_228", "trainable": true, "dtype": "float32", "axis": [3], "momentum": 0.99, "epsilon": 0.001, "center": true, "scale": false, "beta_initializer": {"class_name": "Zeros", "config": {}}, "gamma_initializer": {"class_name": "Ones", "config": {}}, "moving_mean_initializer": {"class_name": "Zeros", "config": {}}, "moving_variance_initializer": {"class_name": "Ones", "config": {}}, "beta_regularizer": null, "gamma_regularizer": null, "beta_constraint": null, "gamma_constraint": null}, "name": "batch_normalization_228", "inbound_nodes": [[["conv2d_236", 0, 0, {}]]]}, {"class_name": "BatchNormalization", "config": {"name": "batch_normalization_231", "trainable": true, "dtype": "float32", "axis": [3], "momentum": 0.99, "epsilon": 0.001, "center": true, "scale": false, "beta_initializer": {"class_name": "Zeros", "config": {}}, "gamma_initializer": {"class_name": "Ones", "config": {}}, "moving_mean_initializer": {"class_name": "Zeros", "config": {}}, "moving_variance_initializer": {"class_name": "Ones", "config": {}}, "beta_regularizer": null, "gamma_regularizer": null, "beta_constraint": null, "gamma_constraint": null}, "name": "batch_normalization_231", "inbound_nodes": [[["conv2d_239", 0, 0, {}]]]}, {"class_name": "Activation", "config": {"name": "activation_223", "trainable": true, "dtype": "float32", "activation": "relu"}, "name": "activation_223", "inbound_nodes": [[["batch_normalization_228", 0, 0, {}]]]}, {"class_name": "Activation", "config": {"name": "activation_226", "trainable": true, "dtype": "float32", "activation": "relu"}, "name": "activation_226", "inbound_nodes": [[["batch_normalization_231", 0, 0, {}]]]}, {"class_name": "AveragePooling2D", "config": {"name": "average_pooling2d_3", "trainable": true, "dtype": "float32", "pool_size": [3, 3], "padding": "same", "strides": [1, 1], "data_format": "channels_last"}, "name": "average_pooling2d_3", "inbound_nodes": [[["mixed1", 0, 0, {}]]]}, {"class_name": "Conv2D", "config": {"name": "conv2d_235", "trainable": true, "dtype": "float32", "filters": 64, "kernel_size": [1, 1], "strides": [1, 1], "padding": "same", "data_format": "channels_last", "dilation_rate": [1, 1], "groups": 1, "activation": "linear", "use_bias": false, "kernel_initializer": {"class_name": "GlorotUniform", "config": {"seed": null}}, "bias_initializer": {"class_name": "Zeros", "config": {}}, "kernel_regularizer": null, "bias_regularizer": null, "activity_regularizer": null, "kernel_constraint": null, "bias_constraint": null}, "name": "conv2d_235", "inbound_nodes": [[["mixed1", 0, 0, {}]]]}, {"class_name": "Conv2D", "config": {"name": "conv2d_237", "trainable": true, "dtype": "float32", "filters": 64, "kernel_size": [5, 5], "strides": [1, 1], "padding": "same", "data_format": "channels_last", "dilation_rate": [1, 1], "groups": 1, "activation": "linear", "use_bias": false, "kernel_initializer": {"class_name": "GlorotUniform", "config": {"seed": null}}, "bias_initializer": {"class_name": "Zeros", "config": {}}, "kernel_regularizer": null, "bias_regularizer": null, "activity_regularizer": null, "kernel_constraint": null, "bias_constraint": null}, "name": "conv2d_237", "inbound_nodes": [[["activation_223", 0, 0, {}]]]}, {"class_name": "Conv2D", "config": {"name": "conv2d_240", "trainable": true, "dtype": "float32", "filters": 96, "kernel_size": [3, 3], "strides": [1, 1], "padding": "same", "data_format": "channels_last", "dilation_rate": [1, 1], "groups": 1, "activation": "linear", "use_bias": false, "kernel_initializer": {"class_name": "GlorotUniform", "config": {"seed": null}}, "bias_initializer": {"class_name": "Zeros", "config": {}}, "kernel_regularizer": null, "bias_regularizer": null, "activity_regularizer": null, "kernel_constraint": null, "bias_constraint": null}, "name": "conv2d_240", "inbound_nodes": [[["activation_226", 0, 0, {}]]]}, {"class_name": "Conv2D", "config": {"name": "conv2d_241", "trainable": true, "dtype": "float32", "filters": 64, "kernel_size": [1, 1], "strides": [1, 1], "padding": "same", "data_format": "channels_last", "dilation_rate": [1, 1], "groups": 1, "activation": "linear", "use_bias": false, "kernel_initializer": {"class_name": "GlorotUniform", "config": {"seed": null}}, "bias_initializer": {"class_name": "Zeros", "config": {}}, "kernel_regularizer": null, "bias_regularizer": null, "activity_regularizer": null, "kernel_constraint": null, "bias_constraint": null}, "name": "conv2d_241", "inbound_nodes": [[["average_pooling2d_3", 0, 0, {}]]]}, {"class_name": "BatchNormalization", "config": {"name": "batch_normalization_227", "trainable": true, "dtype": "float32", "axis": [3], "momentum": 0.99, "epsilon": 0.001, "center": true, "scale": false, "beta_initializer": {"class_name": "Zeros", "config": {}}, "gamma_initializer": {"class_name": "Ones", "config": {}}, "moving_mean_initializer": {"class_name": "Zeros", "config": {}}, "moving_variance_initializer": {"class_name": "Ones", "config": {}}, "beta_regularizer": null, "gamma_regularizer": null, "beta_constraint": null, "gamma_constraint": null}, "name": "batch_normalization_227", "inbound_nodes": [[["conv2d_235", 0, 0, {}]]]}, {"class_name": "BatchNormalization", "config": {"name": "batch_normalization_229", "trainable": true, "dtype": "float32", "axis": [3], "momentum": 0.99, "epsilon": 0.001, "center": true, "scale": false, "beta_initializer": {"class_name": "Zeros", "config": {}}, "gamma_initializer": {"class_name": "Ones", "config": {}}, "moving_mean_initializer": {"class_name": "Zeros", "config": {}}, "moving_variance_initializer": {"class_name": "Ones", "config": {}}, "beta_regularizer": null, "gamma_regularizer": null, "beta_constraint": null, "gamma_constraint": null}, "name": "batch_normalization_229", "inbound_nodes": [[["conv2d_237", 0, 0, {}]]]}, {"class_name": "BatchNormalization", "config": {"name": "batch_normalization_232", "trainable": true, "dtype": "float32", "axis": [3], "momentum": 0.99, "epsilon": 0.001, "center": true, "scale": false, "beta_initializer": {"class_name": "Zeros", "config": {}}, "gamma_initializer": {"class_name": "Ones", "config": {}}, "moving_mean_initializer": {"class_name": "Zeros", "config": {}}, "moving_variance_initializer": {"class_name": "Ones", "config": {}}, "beta_regularizer": null, "gamma_regularizer": null, "beta_constraint": null, "gamma_constraint": null}, "name": "batch_normalization_232", "inbound_nodes": [[["conv2d_240", 0, 0, {}]]]}, {"class_name": "BatchNormalization", "config": {"name": "batch_normalization_233", "trainable": true, "dtype": "float32", "axis": [3], "momentum": 0.99, "epsilon": 0.001, "center": true, "scale": false, "beta_initializer": {"class_name": "Zeros", "config": {}}, "gamma_initializer": {"class_name": "Ones", "config": {}}, "moving_mean_initializer": {"class_name": "Zeros", "config": {}}, "moving_variance_initializer": {"class_name": "Ones", "config": {}}, "beta_regularizer": null, "gamma_regularizer": null, "beta_constraint": null, "gamma_constraint": null}, "name": "batch_normalization_233", "inbound_nodes": [[["conv2d_241", 0, 0, {}]]]}, {"class_name": "Activation", "config": {"name": "activation_222", "trainable": true, "dtype": "float32", "activation": "relu"}, "name": "activation_222", "inbound_nodes": [[["batch_normalization_227", 0, 0, {}]]]}, {"class_name": "Activation", "config": {"name": "activation_224", "trainable": true, "dtype": "float32", "activation": "relu"}, "name": "activation_224", "inbound_nodes": [[["batch_normalization_229", 0, 0, {}]]]}, {"class_name": "Activation", "config": {"name": "activation_227", "trainable": true, "dtype": "float32", "activation": "relu"}, "name": "activation_227", "inbound_nodes": [[["batch_normalization_232", 0, 0, {}]]]}, {"class_name": "Activation", "config": {"name": "activation_228", "trainable": true, "dtype": "float32", "activation": "relu"}, "name": "activation_228", "inbound_nodes": [[["batch_normalization_233", 0, 0, {}]]]}, {"class_name": "Concatenate", "config": {"name": "mixed2", "trainable": true, "dtype": "float32", "axis": 3}, "name": "mixed2", "inbound_nodes": [[["activation_222", 0, 0, {}], ["activation_224", 0, 0, {}], ["activation_227", 0, 0, {}], ["activation_228", 0, 0, {}]]]}, {"class_name": "Conv2D", "config": {"name": "conv2d_243", "trainable": true, "dtype": "float32", "filters": 64, "kernel_size": [1, 1], "strides": [1, 1], "padding": "same", "data_format": "channels_last", "dilation_rate": [1, 1], "groups": 1, "activation": "linear", "use_bias": false, "kernel_initializer": {"class_name": "GlorotUniform", "config": {"seed": null}}, "bias_initializer": {"class_name": "Zeros", "config": {}}, "kernel_regularizer": null, "bias_regularizer": null, "activity_regularizer": null, "kernel_constraint": null, "bias_constraint": null}, "name": "conv2d_243", "inbound_nodes": [[["mixed2", 0, 0, {}]]]}, {"class_name": "BatchNormalization", "config": {"name": "batch_normalization_235", "trainable": true, "dtype": "float32", "axis": [3], "momentum": 0.99, "epsilon": 0.001, "center": true, "scale": false, "beta_initializer": {"class_name": "Zeros", "config": {}}, "gamma_initializer": {"class_name": "Ones", "config": {}}, "moving_mean_initializer": {"class_name": "Zeros", "config": {}}, "moving_variance_initializer": {"class_name": "Ones", "config": {}}, "beta_regularizer": null, "gamma_regularizer": null, "beta_constraint": null, "gamma_constraint": null}, "name": "batch_normalization_235", "inbound_nodes": [[["conv2d_243", 0, 0, {}]]]}, {"class_name": "Activation", "config": {"name": "activation_230", "trainable": true, "dtype": "float32", "activation": "relu"}, "name": "activation_230", "inbound_nodes": [[["batch_normalization_235", 0, 0, {}]]]}, {"class_name": "Conv2D", "config": {"name": "conv2d_244", "trainable": true, "dtype": "float32", "filters": 96, "kernel_size": [3, 3], "strides": [1, 1], "padding": "same", "data_format": "channels_last", "dilation_rate": [1, 1], "groups": 1, "activation": "linear", "use_bias": false, "kernel_initializer": {"class_name": "GlorotUniform", "config": {"seed": null}}, "bias_initializer": {"class_name": "Zeros", "config": {}}, "kernel_regularizer": null, "bias_regularizer": null, "activity_regularizer": null, "kernel_constraint": null, "bias_constraint": null}, "name": "conv2d_244", "inbound_nodes": [[["activation_230", 0, 0, {}]]]}, {"class_name": "BatchNormalization", "config": {"name": "batch_normalization_236", "trainable": true, "dtype": "float32", "axis": [3], "momentum": 0.99, "epsilon": 0.001, "center": true, "scale": false, "beta_initializer": {"class_name": "Zeros", "config": {}}, "gamma_initializer": {"class_name": "Ones", "config": {}}, "moving_mean_initializer": {"class_name": "Zeros", "config": {}}, "moving_variance_initializer": {"class_name": "Ones", "config": {}}, "beta_regularizer": null, "gamma_regularizer": null, "beta_constraint": null, "gamma_constraint": null}, "name": "batch_normalization_236", "inbound_nodes": [[["conv2d_244", 0, 0, {}]]]}, {"class_name": "Activation", "config": {"name": "activation_231", "trainable": true, "dtype": "float32", "activation": "relu"}, "name": "activation_231", "inbound_nodes": [[["batch_normalization_236", 0, 0, {}]]]}, {"class_name": "Conv2D", "config": {"name": "conv2d_242", "trainable": true, "dtype": "float32", "filters": 384, "kernel_size": [3, 3], "strides": [2, 2], "padding": "valid", "data_format": "channels_last", "dilation_rate": [1, 1], "groups": 1, "activation": "linear", "use_bias": false, "kernel_initializer": {"class_name": "GlorotUniform", "config": {"seed": null}}, "bias_initializer": {"class_name": "Zeros", "config": {}}, "kernel_regularizer": null, "bias_regularizer": null, "activity_regularizer": null, "kernel_constraint": null, "bias_constraint": null}, "name": "conv2d_242", "inbound_nodes": [[["mixed2", 0, 0, {}]]]}, {"class_name": "Conv2D", "config": {"name": "conv2d_245", "trainable": true, "dtype": "float32", "filters": 96, "kernel_size": [3, 3], "strides": [2, 2], "padding": "valid", "data_format": "channels_last", "dilation_rate": [1, 1], "groups": 1, "activation": "linear", "use_bias": false, "kernel_initializer": {"class_name": "GlorotUniform", "config": {"seed": null}}, "bias_initializer": {"class_name": "Zeros", "config": {}}, "kernel_regularizer": null, "bias_regularizer": null, "activity_regularizer": null, "kernel_constraint": null, "bias_constraint": null}, "name": "conv2d_245", "inbound_nodes": [[["activation_231", 0, 0, {}]]]}, {"class_name": "BatchNormalization", "config": {"name": "batch_normalization_234", "trainable": true, "dtype": "float32", "axis": [3], "momentum": 0.99, "epsilon": 0.001, "center": true, "scale": false, "beta_initializer": {"class_name": "Zeros", "config": {}}, "gamma_initializer": {"class_name": "Ones", "config": {}}, "moving_mean_initializer": {"class_name": "Zeros", "config": {}}, "moving_variance_initializer": {"class_name": "Ones", "config": {}}, "beta_regularizer": null, "gamma_regularizer": null, "beta_constraint": null, "gamma_constraint": null}, "name": "batch_normalization_234", "inbound_nodes": [[["conv2d_242", 0, 0, {}]]]}, {"class_name": "BatchNormalization", "config": {"name": "batch_normalization_237", "trainable": true, "dtype": "float32", "axis": [3], "momentum": 0.99, "epsilon": 0.001, "center": true, "scale": false, "beta_initializer": {"class_name": "Zeros", "config": {}}, "gamma_initializer": {"class_name": "Ones", "config": {}}, "moving_mean_initializer": {"class_name": "Zeros", "config": {}}, "moving_variance_initializer": {"class_name": "Ones", "config": {}}, "beta_regularizer": null, "gamma_regularizer": null, "beta_constraint": null, "gamma_constraint": null}, "name": "batch_normalization_237", "inbound_nodes": [[["conv2d_245", 0, 0, {}]]]}, {"class_name": "Activation", "config": {"name": "activation_229", "trainable": true, "dtype": "float32", "activation": "relu"}, "name": "activation_229", "inbound_nodes": [[["batch_normalization_234", 0, 0, {}]]]}, {"class_name": "Activation", "config": {"name": "activation_232", "trainable": true, "dtype": "float32", "activation": "relu"}, "name": "activation_232", "inbound_nodes": [[["batch_normalization_237", 0, 0, {}]]]}, {"class_name": "MaxPooling2D", "config": {"name": "max_pooling2d_8", "trainable": true, "dtype": "float32", "pool_size": [3, 3], "padding": "valid", "strides": [2, 2], "data_format": "channels_last"}, "name": "max_pooling2d_8", "inbound_nodes": [[["mixed2", 0, 0, {}]]]}, {"class_name": "Concatenate", "config": {"name": "mixed3", "trainable": true, "dtype": "float32", "axis": 3}, "name": "mixed3", "inbound_nodes": [[["activation_229", 0, 0, {}], ["activation_232", 0, 0, {}], ["max_pooling2d_8", 0, 0, {}]]]}, {"class_name": "Conv2D", "config": {"name": "conv2d_250", "trainable": true, "dtype": "float32", "filters": 128, "kernel_size": [1, 1], "strides": [1, 1], "padding": "same", "data_format": "channels_last", "dilation_rate": [1, 1], "groups": 1, "activation": "linear", "use_bias": false, "kernel_initializer": {"class_name": "GlorotUniform", "config": {"seed": null}}, "bias_initializer": {"class_name": "Zeros", "config": {}}, "kernel_regularizer": null, "bias_regularizer": null, "activity_regularizer": null, "kernel_constraint": null, "bias_constraint": null}, "name": "conv2d_250", "inbound_nodes": [[["mixed3", 0, 0, {}]]]}, {"class_name": "BatchNormalization", "config": {"name": "batch_normalization_242", "trainable": true, "dtype": "float32", "axis": [3], "momentum": 0.99, "epsilon": 0.001, "center": true, "scale": false, "beta_initializer": {"class_name": "Zeros", "config": {}}, "gamma_initializer": {"class_name": "Ones", "config": {}}, "moving_mean_initializer": {"class_name": "Zeros", "config": {}}, "moving_variance_initializer": {"class_name": "Ones", "config": {}}, "beta_regularizer": null, "gamma_regularizer": null, "beta_constraint": null, "gamma_constraint": null}, "name": "batch_normalization_242", "inbound_nodes": [[["conv2d_250", 0, 0, {}]]]}, {"class_name": "Activation", "config": {"name": "activation_237", "trainable": true, "dtype": "float32", "activation": "relu"}, "name": "activation_237", "inbound_nodes": [[["batch_normalization_242", 0, 0, {}]]]}, {"class_name": "Conv2D", "config": {"name": "conv2d_251", "trainable": true, "dtype": "float32", "filters": 128, "kernel_size": [7, 1], "strides": [1, 1], "padding": "same", "data_format": "channels_last", "dilation_rate": [1, 1], "groups": 1, "activation": "linear", "use_bias": false, "kernel_initializer": {"class_name": "GlorotUniform", "config": {"seed": null}}, "bias_initializer": {"class_name": "Zeros", "config": {}}, "kernel_regularizer": null, "bias_regularizer": null, "activity_regularizer": null, "kernel_constraint": null, "bias_constraint": null}, "name": "conv2d_251", "inbound_nodes": [[["activation_237", 0, 0, {}]]]}, {"class_name": "BatchNormalization", "config": {"name": "batch_normalization_243", "trainable": true, "dtype": "float32", "axis": [3], "momentum": 0.99, "epsilon": 0.001, "center": true, "scale": false, "beta_initializer": {"class_name": "Zeros", "config": {}}, "gamma_initializer": {"class_name": "Ones", "config": {}}, "moving_mean_initializer": {"class_name": "Zeros", "config": {}}, "moving_variance_initializer": {"class_name": "Ones", "config": {}}, "beta_regularizer": null, "gamma_regularizer": null, "beta_constraint": null, "gamma_constraint": null}, "name": "batch_normalization_243", "inbound_nodes": [[["conv2d_251", 0, 0, {}]]]}, {"class_name": "Activation", "config": {"name": "activation_238", "trainable": true, "dtype": "float32", "activation": "relu"}, "name": "activation_238", "inbound_nodes": [[["batch_normalization_243", 0, 0, {}]]]}, {"class_name": "Conv2D", "config": {"name": "conv2d_247", "trainable": true, "dtype": "float32", "filters": 128, "kernel_size": [1, 1], "strides": [1, 1], "padding": "same", "data_format": "channels_last", "dilation_rate": [1, 1], "groups": 1, "activation": "linear", "use_bias": false, "kernel_initializer": {"class_name": "GlorotUniform", "config": {"seed": null}}, "bias_initializer": {"class_name": "Zeros", "config": {}}, "kernel_regularizer": null, "bias_regularizer": null, "activity_regularizer": null, "kernel_constraint": null, "bias_constraint": null}, "name": "conv2d_247", "inbound_nodes": [[["mixed3", 0, 0, {}]]]}, {"class_name": "Conv2D", "config": {"name": "conv2d_252", "trainable": true, "dtype": "float32", "filters": 128, "kernel_size": [1, 7], "strides": [1, 1], "padding": "same", "data_format": "channels_last", "dilation_rate": [1, 1], "groups": 1, "activation": "linear", "use_bias": false, "kernel_initializer": {"class_name": "GlorotUniform", "config": {"seed": null}}, "bias_initializer": {"class_name": "Zeros", "config": {}}, "kernel_regularizer": null, "bias_regularizer": null, "activity_regularizer": null, "kernel_constraint": null, "bias_constraint": null}, "name": "conv2d_252", "inbound_nodes": [[["activation_238", 0, 0, {}]]]}, {"class_name": "BatchNormalization", "config": {"name": "batch_normalization_239", "trainable": true, "dtype": "float32", "axis": [3], "momentum": 0.99, "epsilon": 0.001, "center": true, "scale": false, "beta_initializer": {"class_name": "Zeros", "config": {}}, "gamma_initializer": {"class_name": "Ones", "config": {}}, "moving_mean_initializer": {"class_name": "Zeros", "config": {}}, "moving_variance_initializer": {"class_name": "Ones", "config": {}}, "beta_regularizer": null, "gamma_regularizer": null, "beta_constraint": null, "gamma_constraint": null}, "name": "batch_normalization_239", "inbound_nodes": [[["conv2d_247", 0, 0, {}]]]}, {"class_name": "BatchNormalization", "config": {"name": "batch_normalization_244", "trainable": true, "dtype": "float32", "axis": [3], "momentum": 0.99, "epsilon": 0.001, "center": true, "scale": false, "beta_initializer": {"class_name": "Zeros", "config": {}}, "gamma_initializer": {"class_name": "Ones", "config": {}}, "moving_mean_initializer": {"class_name": "Zeros", "config": {}}, "moving_variance_initializer": {"class_name": "Ones", "config": {}}, "beta_regularizer": null, "gamma_regularizer": null, "beta_constraint": null, "gamma_constraint": null}, "name": "batch_normalization_244", "inbound_nodes": [[["conv2d_252", 0, 0, {}]]]}, {"class_name": "Activation", "config": {"name": "activation_234", "trainable": true, "dtype": "float32", "activation": "relu"}, "name": "activation_234", "inbound_nodes": [[["batch_normalization_239", 0, 0, {}]]]}, {"class_name": "Activation", "config": {"name": "activation_239", "trainable": true, "dtype": "float32", "activation": "relu"}, "name": "activation_239", "inbound_nodes": [[["batch_normalization_244", 0, 0, {}]]]}, {"class_name": "Conv2D", "config": {"name": "conv2d_248", "trainable": true, "dtype": "float32", "filters": 128, "kernel_size": [1, 7], "strides": [1, 1], "padding": "same", "data_format": "channels_last", "dilation_rate": [1, 1], "groups": 1, "activation": "linear", "use_bias": false, "kernel_initializer": {"class_name": "GlorotUniform", "config": {"seed": null}}, "bias_initializer": {"class_name": "Zeros", "config": {}}, "kernel_regularizer": null, "bias_regularizer": null, "activity_regularizer": null, "kernel_constraint": null, "bias_constraint": null}, "name": "conv2d_248", "inbound_nodes": [[["activation_234", 0, 0, {}]]]}, {"class_name": "Conv2D", "config": {"name": "conv2d_253", "trainable": true, "dtype": "float32", "filters": 128, "kernel_size": [7, 1], "strides": [1, 1], "padding": "same", "data_format": "channels_last", "dilation_rate": [1, 1], "groups": 1, "activation": "linear", "use_bias": false, "kernel_initializer": {"class_name": "GlorotUniform", "config": {"seed": null}}, "bias_initializer": {"class_name": "Zeros", "config": {}}, "kernel_regularizer": null, "bias_regularizer": null, "activity_regularizer": null, "kernel_constraint": null, "bias_constraint": null}, "name": "conv2d_253", "inbound_nodes": [[["activation_239", 0, 0, {}]]]}, {"class_name": "BatchNormalization", "config": {"name": "batch_normalization_240", "trainable": true, "dtype": "float32", "axis": [3], "momentum": 0.99, "epsilon": 0.001, "center": true, "scale": false, "beta_initializer": {"class_name": "Zeros", "config": {}}, "gamma_initializer": {"class_name": "Ones", "config": {}}, "moving_mean_initializer": {"class_name": "Zeros", "config": {}}, "moving_variance_initializer": {"class_name": "Ones", "config": {}}, "beta_regularizer": null, "gamma_regularizer": null, "beta_constraint": null, "gamma_constraint": null}, "name": "batch_normalization_240", "inbound_nodes": [[["conv2d_248", 0, 0, {}]]]}, {"class_name": "BatchNormalization", "config": {"name": "batch_normalization_245", "trainable": true, "dtype": "float32", "axis": [3], "momentum": 0.99, "epsilon": 0.001, "center": true, "scale": false, "beta_initializer": {"class_name": "Zeros", "config": {}}, "gamma_initializer": {"class_name": "Ones", "config": {}}, "moving_mean_initializer": {"class_name": "Zeros", "config": {}}, "moving_variance_initializer": {"class_name": "Ones", "config": {}}, "beta_regularizer": null, "gamma_regularizer": null, "beta_constraint": null, "gamma_constraint": null}, "name": "batch_normalization_245", "inbound_nodes": [[["conv2d_253", 0, 0, {}]]]}, {"class_name": "Activation", "config": {"name": "activation_235", "trainable": true, "dtype": "float32", "activation": "relu"}, "name": "activation_235", "inbound_nodes": [[["batch_normalization_240", 0, 0, {}]]]}, {"class_name": "Activation", "config": {"name": "activation_240", "trainable": true, "dtype": "float32", "activation": "relu"}, "name": "activation_240", "inbound_nodes": [[["batch_normalization_245", 0, 0, {}]]]}, {"class_name": "AveragePooling2D", "config": {"name": "average_pooling2d_4", "trainable": true, "dtype": "float32", "pool_size": [3, 3], "padding": "same", "strides": [1, 1], "data_format": "channels_last"}, "name": "average_pooling2d_4", "inbound_nodes": [[["mixed3", 0, 0, {}]]]}, {"class_name": "Conv2D", "config": {"name": "conv2d_246", "trainable": true, "dtype": "float32", "filters": 192, "kernel_size": [1, 1], "strides": [1, 1], "padding": "same", "data_format": "channels_last", "dilation_rate": [1, 1], "groups": 1, "activation": "linear", "use_bias": false, "kernel_initializer": {"class_name": "GlorotUniform", "config": {"seed": null}}, "bias_initializer": {"class_name": "Zeros", "config": {}}, "kernel_regularizer": null, "bias_regularizer": null, "activity_regularizer": null, "kernel_constraint": null, "bias_constraint": null}, "name": "conv2d_246", "inbound_nodes": [[["mixed3", 0, 0, {}]]]}, {"class_name": "Conv2D", "config": {"name": "conv2d_249", "trainable": true, "dtype": "float32", "filters": 192, "kernel_size": [7, 1], "strides": [1, 1], "padding": "same", "data_format": "channels_last", "dilation_rate": [1, 1], "groups": 1, "activation": "linear", "use_bias": false, "kernel_initializer": {"class_name": "GlorotUniform", "config": {"seed": null}}, "bias_initializer": {"class_name": "Zeros", "config": {}}, "kernel_regularizer": null, "bias_regularizer": null, "activity_regularizer": null, "kernel_constraint": null, "bias_constraint": null}, "name": "conv2d_249", "inbound_nodes": [[["activation_235", 0, 0, {}]]]}, {"class_name": "Conv2D", "config": {"name": "conv2d_254", "trainable": true, "dtype": "float32", "filters": 192, "kernel_size": [1, 7], "strides": [1, 1], "padding": "same", "data_format": "channels_last", "dilation_rate": [1, 1], "groups": 1, "activation": "linear", "use_bias": false, "kernel_initializer": {"class_name": "GlorotUniform", "config": {"seed": null}}, "bias_initializer": {"class_name": "Zeros", "config": {}}, "kernel_regularizer": null, "bias_regularizer": null, "activity_regularizer": null, "kernel_constraint": null, "bias_constraint": null}, "name": "conv2d_254", "inbound_nodes": [[["activation_240", 0, 0, {}]]]}, {"class_name": "Conv2D", "config": {"name": "conv2d_255", "trainable": true, "dtype": "float32", "filters": 192, "kernel_size": [1, 1], "strides": [1, 1], "padding": "same", "data_format": "channels_last", "dilation_rate": [1, 1], "groups": 1, "activation": "linear", "use_bias": false, "kernel_initializer": {"class_name": "GlorotUniform", "config": {"seed": null}}, "bias_initializer": {"class_name": "Zeros", "config": {}}, "kernel_regularizer": null, "bias_regularizer": null, "activity_regularizer": null, "kernel_constraint": null, "bias_constraint": null}, "name": "conv2d_255", "inbound_nodes": [[["average_pooling2d_4", 0, 0, {}]]]}, {"class_name": "BatchNormalization", "config": {"name": "batch_normalization_238", "trainable": true, "dtype": "float32", "axis": [3], "momentum": 0.99, "epsilon": 0.001, "center": true, "scale": false, "beta_initializer": {"class_name": "Zeros", "config": {}}, "gamma_initializer": {"class_name": "Ones", "config": {}}, "moving_mean_initializer": {"class_name": "Zeros", "config": {}}, "moving_variance_initializer": {"class_name": "Ones", "config": {}}, "beta_regularizer": null, "gamma_regularizer": null, "beta_constraint": null, "gamma_constraint": null}, "name": "batch_normalization_238", "inbound_nodes": [[["conv2d_246", 0, 0, {}]]]}, {"class_name": "BatchNormalization", "config": {"name": "batch_normalization_241", "trainable": true, "dtype": "float32", "axis": [3], "momentum": 0.99, "epsilon": 0.001, "center": true, "scale": false, "beta_initializer": {"class_name": "Zeros", "config": {}}, "gamma_initializer": {"class_name": "Ones", "config": {}}, "moving_mean_initializer": {"class_name": "Zeros", "config": {}}, "moving_variance_initializer": {"class_name": "Ones", "config": {}}, "beta_regularizer": null, "gamma_regularizer": null, "beta_constraint": null, "gamma_constraint": null}, "name": "batch_normalization_241", "inbound_nodes": [[["conv2d_249", 0, 0, {}]]]}, {"class_name": "BatchNormalization", "config": {"name": "batch_normalization_246", "trainable": true, "dtype": "float32", "axis": [3], "momentum": 0.99, "epsilon": 0.001, "center": true, "scale": false, "beta_initializer": {"class_name": "Zeros", "config": {}}, "gamma_initializer": {"class_name": "Ones", "config": {}}, "moving_mean_initializer": {"class_name": "Zeros", "config": {}}, "moving_variance_initializer": {"class_name": "Ones", "config": {}}, "beta_regularizer": null, "gamma_regularizer": null, "beta_constraint": null, "gamma_constraint": null}, "name": "batch_normalization_246", "inbound_nodes": [[["conv2d_254", 0, 0, {}]]]}, {"class_name": "BatchNormalization", "config": {"name": "batch_normalization_247", "trainable": true, "dtype": "float32", "axis": [3], "momentum": 0.99, "epsilon": 0.001, "center": true, "scale": false, "beta_initializer": {"class_name": "Zeros", "config": {}}, "gamma_initializer": {"class_name": "Ones", "config": {}}, "moving_mean_initializer": {"class_name": "Zeros", "config": {}}, "moving_variance_initializer": {"class_name": "Ones", "config": {}}, "beta_regularizer": null, "gamma_regularizer": null, "beta_constraint": null, "gamma_constraint": null}, "name": "batch_normalization_247", "inbound_nodes": [[["conv2d_255", 0, 0, {}]]]}, {"class_name": "Activation", "config": {"name": "activation_233", "trainable": true, "dtype": "float32", "activation": "relu"}, "name": "activation_233", "inbound_nodes": [[["batch_normalization_238", 0, 0, {}]]]}, {"class_name": "Activation", "config": {"name": "activation_236", "trainable": true, "dtype": "float32", "activation": "relu"}, "name": "activation_236", "inbound_nodes": [[["batch_normalization_241", 0, 0, {}]]]}, {"class_name": "Activation", "config": {"name": "activation_241", "trainable": true, "dtype": "float32", "activation": "relu"}, "name": "activation_241", "inbound_nodes": [[["batch_normalization_246", 0, 0, {}]]]}, {"class_name": "Activation", "config": {"name": "activation_242", "trainable": true, "dtype": "float32", "activation": "relu"}, "name": "activation_242", "inbound_nodes": [[["batch_normalization_247", 0, 0, {}]]]}, {"class_name": "Concatenate", "config": {"name": "mixed4", "trainable": true, "dtype": "float32", "axis": 3}, "name": "mixed4", "inbound_nodes": [[["activation_233", 0, 0, {}], ["activation_236", 0, 0, {}], ["activation_241", 0, 0, {}], ["activation_242", 0, 0, {}]]]}, {"class_name": "Conv2D", "config": {"name": "conv2d_260", "trainable": true, "dtype": "float32", "filters": 160, "kernel_size": [1, 1], "strides": [1, 1], "padding": "same", "data_format": "channels_last", "dilation_rate": [1, 1], "groups": 1, "activation": "linear", "use_bias": false, "kernel_initializer": {"class_name": "GlorotUniform", "config": {"seed": null}}, "bias_initializer": {"class_name": "Zeros", "config": {}}, "kernel_regularizer": null, "bias_regularizer": null, "activity_regularizer": null, "kernel_constraint": null, "bias_constraint": null}, "name": "conv2d_260", "inbound_nodes": [[["mixed4", 0, 0, {}]]]}, {"class_name": "BatchNormalization", "config": {"name": "batch_normalization_252", "trainable": true, "dtype": "float32", "axis": [3], "momentum": 0.99, "epsilon": 0.001, "center": true, "scale": false, "beta_initializer": {"class_name": "Zeros", "config": {}}, "gamma_initializer": {"class_name": "Ones", "config": {}}, "moving_mean_initializer": {"class_name": "Zeros", "config": {}}, "moving_variance_initializer": {"class_name": "Ones", "config": {}}, "beta_regularizer": null, "gamma_regularizer": null, "beta_constraint": null, "gamma_constraint": null}, "name": "batch_normalization_252", "inbound_nodes": [[["conv2d_260", 0, 0, {}]]]}, {"class_name": "Activation", "config": {"name": "activation_247", "trainable": true, "dtype": "float32", "activation": "relu"}, "name": "activation_247", "inbound_nodes": [[["batch_normalization_252", 0, 0, {}]]]}, {"class_name": "Conv2D", "config": {"name": "conv2d_261", "trainable": true, "dtype": "float32", "filters": 160, "kernel_size": [7, 1], "strides": [1, 1], "padding": "same", "data_format": "channels_last", "dilation_rate": [1, 1], "groups": 1, "activation": "linear", "use_bias": false, "kernel_initializer": {"class_name": "GlorotUniform", "config": {"seed": null}}, "bias_initializer": {"class_name": "Zeros", "config": {}}, "kernel_regularizer": null, "bias_regularizer": null, "activity_regularizer": null, "kernel_constraint": null, "bias_constraint": null}, "name": "conv2d_261", "inbound_nodes": [[["activation_247", 0, 0, {}]]]}, {"class_name": "BatchNormalization", "config": {"name": "batch_normalization_253", "trainable": true, "dtype": "float32", "axis": [3], "momentum": 0.99, "epsilon": 0.001, "center": true, "scale": false, "beta_initializer": {"class_name": "Zeros", "config": {}}, "gamma_initializer": {"class_name": "Ones", "config": {}}, "moving_mean_initializer": {"class_name": "Zeros", "config": {}}, "moving_variance_initializer": {"class_name": "Ones", "config": {}}, "beta_regularizer": null, "gamma_regularizer": null, "beta_constraint": null, "gamma_constraint": null}, "name": "batch_normalization_253", "inbound_nodes": [[["conv2d_261", 0, 0, {}]]]}, {"class_name": "Activation", "config": {"name": "activation_248", "trainable": true, "dtype": "float32", "activation": "relu"}, "name": "activation_248", "inbound_nodes": [[["batch_normalization_253", 0, 0, {}]]]}, {"class_name": "Conv2D", "config": {"name": "conv2d_257", "trainable": true, "dtype": "float32", "filters": 160, "kernel_size": [1, 1], "strides": [1, 1], "padding": "same", "data_format": "channels_last", "dilation_rate": [1, 1], "groups": 1, "activation": "linear", "use_bias": false, "kernel_initializer": {"class_name": "GlorotUniform", "config": {"seed": null}}, "bias_initializer": {"class_name": "Zeros", "config": {}}, "kernel_regularizer": null, "bias_regularizer": null, "activity_regularizer": null, "kernel_constraint": null, "bias_constraint": null}, "name": "conv2d_257", "inbound_nodes": [[["mixed4", 0, 0, {}]]]}, {"class_name": "Conv2D", "config": {"name": "conv2d_262", "trainable": true, "dtype": "float32", "filters": 160, "kernel_size": [1, 7], "strides": [1, 1], "padding": "same", "data_format": "channels_last", "dilation_rate": [1, 1], "groups": 1, "activation": "linear", "use_bias": false, "kernel_initializer": {"class_name": "GlorotUniform", "config": {"seed": null}}, "bias_initializer": {"class_name": "Zeros", "config": {}}, "kernel_regularizer": null, "bias_regularizer": null, "activity_regularizer": null, "kernel_constraint": null, "bias_constraint": null}, "name": "conv2d_262", "inbound_nodes": [[["activation_248", 0, 0, {}]]]}, {"class_name": "BatchNormalization", "config": {"name": "batch_normalization_249", "trainable": true, "dtype": "float32", "axis": [3], "momentum": 0.99, "epsilon": 0.001, "center": true, "scale": false, "beta_initializer": {"class_name": "Zeros", "config": {}}, "gamma_initializer": {"class_name": "Ones", "config": {}}, "moving_mean_initializer": {"class_name": "Zeros", "config": {}}, "moving_variance_initializer": {"class_name": "Ones", "config": {}}, "beta_regularizer": null, "gamma_regularizer": null, "beta_constraint": null, "gamma_constraint": null}, "name": "batch_normalization_249", "inbound_nodes": [[["conv2d_257", 0, 0, {}]]]}, {"class_name": "BatchNormalization", "config": {"name": "batch_normalization_254", "trainable": true, "dtype": "float32", "axis": [3], "momentum": 0.99, "epsilon": 0.001, "center": true, "scale": false, "beta_initializer": {"class_name": "Zeros", "config": {}}, "gamma_initializer": {"class_name": "Ones", "config": {}}, "moving_mean_initializer": {"class_name": "Zeros", "config": {}}, "moving_variance_initializer": {"class_name": "Ones", "config": {}}, "beta_regularizer": null, "gamma_regularizer": null, "beta_constraint": null, "gamma_constraint": null}, "name": "batch_normalization_254", "inbound_nodes": [[["conv2d_262", 0, 0, {}]]]}, {"class_name": "Activation", "config": {"name": "activation_244", "trainable": true, "dtype": "float32", "activation": "relu"}, "name": "activation_244", "inbound_nodes": [[["batch_normalization_249", 0, 0, {}]]]}, {"class_name": "Activation", "config": {"name": "activation_249", "trainable": true, "dtype": "float32", "activation": "relu"}, "name": "activation_249", "inbound_nodes": [[["batch_normalization_254", 0, 0, {}]]]}, {"class_name": "Conv2D", "config": {"name": "conv2d_258", "trainable": true, "dtype": "float32", "filters": 160, "kernel_size": [1, 7], "strides": [1, 1], "padding": "same", "data_format": "channels_last", "dilation_rate": [1, 1], "groups": 1, "activation": "linear", "use_bias": false, "kernel_initializer": {"class_name": "GlorotUniform", "config": {"seed": null}}, "bias_initializer": {"class_name": "Zeros", "config": {}}, "kernel_regularizer": null, "bias_regularizer": null, "activity_regularizer": null, "kernel_constraint": null, "bias_constraint": null}, "name": "conv2d_258", "inbound_nodes": [[["activation_244", 0, 0, {}]]]}, {"class_name": "Conv2D", "config": {"name": "conv2d_263", "trainable": true, "dtype": "float32", "filters": 160, "kernel_size": [7, 1], "strides": [1, 1], "padding": "same", "data_format": "channels_last", "dilation_rate": [1, 1], "groups": 1, "activation": "linear", "use_bias": false, "kernel_initializer": {"class_name": "GlorotUniform", "config": {"seed": null}}, "bias_initializer": {"class_name": "Zeros", "config": {}}, "kernel_regularizer": null, "bias_regularizer": null, "activity_regularizer": null, "kernel_constraint": null, "bias_constraint": null}, "name": "conv2d_263", "inbound_nodes": [[["activation_249", 0, 0, {}]]]}, {"class_name": "BatchNormalization", "config": {"name": "batch_normalization_250", "trainable": true, "dtype": "float32", "axis": [3], "momentum": 0.99, "epsilon": 0.001, "center": true, "scale": false, "beta_initializer": {"class_name": "Zeros", "config": {}}, "gamma_initializer": {"class_name": "Ones", "config": {}}, "moving_mean_initializer": {"class_name": "Zeros", "config": {}}, "moving_variance_initializer": {"class_name": "Ones", "config": {}}, "beta_regularizer": null, "gamma_regularizer": null, "beta_constraint": null, "gamma_constraint": null}, "name": "batch_normalization_250", "inbound_nodes": [[["conv2d_258", 0, 0, {}]]]}, {"class_name": "BatchNormalization", "config": {"name": "batch_normalization_255", "trainable": true, "dtype": "float32", "axis": [3], "momentum": 0.99, "epsilon": 0.001, "center": true, "scale": false, "beta_initializer": {"class_name": "Zeros", "config": {}}, "gamma_initializer": {"class_name": "Ones", "config": {}}, "moving_mean_initializer": {"class_name": "Zeros", "config": {}}, "moving_variance_initializer": {"class_name": "Ones", "config": {}}, "beta_regularizer": null, "gamma_regularizer": null, "beta_constraint": null, "gamma_constraint": null}, "name": "batch_normalization_255", "inbound_nodes": [[["conv2d_263", 0, 0, {}]]]}, {"class_name": "Activation", "config": {"name": "activation_245", "trainable": true, "dtype": "float32", "activation": "relu"}, "name": "activation_245", "inbound_nodes": [[["batch_normalization_250", 0, 0, {}]]]}, {"class_name": "Activation", "config": {"name": "activation_250", "trainable": true, "dtype": "float32", "activation": "relu"}, "name": "activation_250", "inbound_nodes": [[["batch_normalization_255", 0, 0, {}]]]}, {"class_name": "AveragePooling2D", "config": {"name": "average_pooling2d_5", "trainable": true, "dtype": "float32", "pool_size": [3, 3], "padding": "same", "strides": [1, 1], "data_format": "channels_last"}, "name": "average_pooling2d_5", "inbound_nodes": [[["mixed4", 0, 0, {}]]]}, {"class_name": "Conv2D", "config": {"name": "conv2d_256", "trainable": true, "dtype": "float32", "filters": 192, "kernel_size": [1, 1], "strides": [1, 1], "padding": "same", "data_format": "channels_last", "dilation_rate": [1, 1], "groups": 1, "activation": "linear", "use_bias": false, "kernel_initializer": {"class_name": "GlorotUniform", "config": {"seed": null}}, "bias_initializer": {"class_name": "Zeros", "config": {}}, "kernel_regularizer": null, "bias_regularizer": null, "activity_regularizer": null, "kernel_constraint": null, "bias_constraint": null}, "name": "conv2d_256", "inbound_nodes": [[["mixed4", 0, 0, {}]]]}, {"class_name": "Conv2D", "config": {"name": "conv2d_259", "trainable": true, "dtype": "float32", "filters": 192, "kernel_size": [7, 1], "strides": [1, 1], "padding": "same", "data_format": "channels_last", "dilation_rate": [1, 1], "groups": 1, "activation": "linear", "use_bias": false, "kernel_initializer": {"class_name": "GlorotUniform", "config": {"seed": null}}, "bias_initializer": {"class_name": "Zeros", "config": {}}, "kernel_regularizer": null, "bias_regularizer": null, "activity_regularizer": null, "kernel_constraint": null, "bias_constraint": null}, "name": "conv2d_259", "inbound_nodes": [[["activation_245", 0, 0, {}]]]}, {"class_name": "Conv2D", "config": {"name": "conv2d_264", "trainable": true, "dtype": "float32", "filters": 192, "kernel_size": [1, 7], "strides": [1, 1], "padding": "same", "data_format": "channels_last", "dilation_rate": [1, 1], "groups": 1, "activation": "linear", "use_bias": false, "kernel_initializer": {"class_name": "GlorotUniform", "config": {"seed": null}}, "bias_initializer": {"class_name": "Zeros", "config": {}}, "kernel_regularizer": null, "bias_regularizer": null, "activity_regularizer": null, "kernel_constraint": null, "bias_constraint": null}, "name": "conv2d_264", "inbound_nodes": [[["activation_250", 0, 0, {}]]]}, {"class_name": "Conv2D", "config": {"name": "conv2d_265", "trainable": true, "dtype": "float32", "filters": 192, "kernel_size": [1, 1], "strides": [1, 1], "padding": "same", "data_format": "channels_last", "dilation_rate": [1, 1], "groups": 1, "activation": "linear", "use_bias": false, "kernel_initializer": {"class_name": "GlorotUniform", "config": {"seed": null}}, "bias_initializer": {"class_name": "Zeros", "config": {}}, "kernel_regularizer": null, "bias_regularizer": null, "activity_regularizer": null, "kernel_constraint": null, "bias_constraint": null}, "name": "conv2d_265", "inbound_nodes": [[["average_pooling2d_5", 0, 0, {}]]]}, {"class_name": "BatchNormalization", "config": {"name": "batch_normalization_248", "trainable": true, "dtype": "float32", "axis": [3], "momentum": 0.99, "epsilon": 0.001, "center": true, "scale": false, "beta_initializer": {"class_name": "Zeros", "config": {}}, "gamma_initializer": {"class_name": "Ones", "config": {}}, "moving_mean_initializer": {"class_name": "Zeros", "config": {}}, "moving_variance_initializer": {"class_name": "Ones", "config": {}}, "beta_regularizer": null, "gamma_regularizer": null, "beta_constraint": null, "gamma_constraint": null}, "name": "batch_normalization_248", "inbound_nodes": [[["conv2d_256", 0, 0, {}]]]}, {"class_name": "BatchNormalization", "config": {"name": "batch_normalization_251", "trainable": true, "dtype": "float32", "axis": [3], "momentum": 0.99, "epsilon": 0.001, "center": true, "scale": false, "beta_initializer": {"class_name": "Zeros", "config": {}}, "gamma_initializer": {"class_name": "Ones", "config": {}}, "moving_mean_initializer": {"class_name": "Zeros", "config": {}}, "moving_variance_initializer": {"class_name": "Ones", "config": {}}, "beta_regularizer": null, "gamma_regularizer": null, "beta_constraint": null, "gamma_constraint": null}, "name": "batch_normalization_251", "inbound_nodes": [[["conv2d_259", 0, 0, {}]]]}, {"class_name": "BatchNormalization", "config": {"name": "batch_normalization_256", "trainable": true, "dtype": "float32", "axis": [3], "momentum": 0.99, "epsilon": 0.001, "center": true, "scale": false, "beta_initializer": {"class_name": "Zeros", "config": {}}, "gamma_initializer": {"class_name": "Ones", "config": {}}, "moving_mean_initializer": {"class_name": "Zeros", "config": {}}, "moving_variance_initializer": {"class_name": "Ones", "config": {}}, "beta_regularizer": null, "gamma_regularizer": null, "beta_constraint": null, "gamma_constraint": null}, "name": "batch_normalization_256", "inbound_nodes": [[["conv2d_264", 0, 0, {}]]]}, {"class_name": "BatchNormalization", "config": {"name": "batch_normalization_257", "trainable": true, "dtype": "float32", "axis": [3], "momentum": 0.99, "epsilon": 0.001, "center": true, "scale": false, "beta_initializer": {"class_name": "Zeros", "config": {}}, "gamma_initializer": {"class_name": "Ones", "config": {}}, "moving_mean_initializer": {"class_name": "Zeros", "config": {}}, "moving_variance_initializer": {"class_name": "Ones", "config": {}}, "beta_regularizer": null, "gamma_regularizer": null, "beta_constraint": null, "gamma_constraint": null}, "name": "batch_normalization_257", "inbound_nodes": [[["conv2d_265", 0, 0, {}]]]}, {"class_name": "Activation", "config": {"name": "activation_243", "trainable": true, "dtype": "float32", "activation": "relu"}, "name": "activation_243", "inbound_nodes": [[["batch_normalization_248", 0, 0, {}]]]}, {"class_name": "Activation", "config": {"name": "activation_246", "trainable": true, "dtype": "float32", "activation": "relu"}, "name": "activation_246", "inbound_nodes": [[["batch_normalization_251", 0, 0, {}]]]}, {"class_name": "Activation", "config": {"name": "activation_251", "trainable": true, "dtype": "float32", "activation": "relu"}, "name": "activation_251", "inbound_nodes": [[["batch_normalization_256", 0, 0, {}]]]}, {"class_name": "Activation", "config": {"name": "activation_252", "trainable": true, "dtype": "float32", "activation": "relu"}, "name": "activation_252", "inbound_nodes": [[["batch_normalization_257", 0, 0, {}]]]}, {"class_name": "Concatenate", "config": {"name": "mixed5", "trainable": true, "dtype": "float32", "axis": 3}, "name": "mixed5", "inbound_nodes": [[["activation_243", 0, 0, {}], ["activation_246", 0, 0, {}], ["activation_251", 0, 0, {}], ["activation_252", 0, 0, {}]]]}, {"class_name": "Conv2D", "config": {"name": "conv2d_270", "trainable": true, "dtype": "float32", "filters": 160, "kernel_size": [1, 1], "strides": [1, 1], "padding": "same", "data_format": "channels_last", "dilation_rate": [1, 1], "groups": 1, "activation": "linear", "use_bias": false, "kernel_initializer": {"class_name": "GlorotUniform", "config": {"seed": null}}, "bias_initializer": {"class_name": "Zeros", "config": {}}, "kernel_regularizer": null, "bias_regularizer": null, "activity_regularizer": null, "kernel_constraint": null, "bias_constraint": null}, "name": "conv2d_270", "inbound_nodes": [[["mixed5", 0, 0, {}]]]}, {"class_name": "BatchNormalization", "config": {"name": "batch_normalization_262", "trainable": true, "dtype": "float32", "axis": [3], "momentum": 0.99, "epsilon": 0.001, "center": true, "scale": false, "beta_initializer": {"class_name": "Zeros", "config": {}}, "gamma_initializer": {"class_name": "Ones", "config": {}}, "moving_mean_initializer": {"class_name": "Zeros", "config": {}}, "moving_variance_initializer": {"class_name": "Ones", "config": {}}, "beta_regularizer": null, "gamma_regularizer": null, "beta_constraint": null, "gamma_constraint": null}, "name": "batch_normalization_262", "inbound_nodes": [[["conv2d_270", 0, 0, {}]]]}, {"class_name": "Activation", "config": {"name": "activation_257", "trainable": true, "dtype": "float32", "activation": "relu"}, "name": "activation_257", "inbound_nodes": [[["batch_normalization_262", 0, 0, {}]]]}, {"class_name": "Conv2D", "config": {"name": "conv2d_271", "trainable": true, "dtype": "float32", "filters": 160, "kernel_size": [7, 1], "strides": [1, 1], "padding": "same", "data_format": "channels_last", "dilation_rate": [1, 1], "groups": 1, "activation": "linear", "use_bias": false, "kernel_initializer": {"class_name": "GlorotUniform", "config": {"seed": null}}, "bias_initializer": {"class_name": "Zeros", "config": {}}, "kernel_regularizer": null, "bias_regularizer": null, "activity_regularizer": null, "kernel_constraint": null, "bias_constraint": null}, "name": "conv2d_271", "inbound_nodes": [[["activation_257", 0, 0, {}]]]}, {"class_name": "BatchNormalization", "config": {"name": "batch_normalization_263", "trainable": true, "dtype": "float32", "axis": [3], "momentum": 0.99, "epsilon": 0.001, "center": true, "scale": false, "beta_initializer": {"class_name": "Zeros", "config": {}}, "gamma_initializer": {"class_name": "Ones", "config": {}}, "moving_mean_initializer": {"class_name": "Zeros", "config": {}}, "moving_variance_initializer": {"class_name": "Ones", "config": {}}, "beta_regularizer": null, "gamma_regularizer": null, "beta_constraint": null, "gamma_constraint": null}, "name": "batch_normalization_263", "inbound_nodes": [[["conv2d_271", 0, 0, {}]]]}, {"class_name": "Activation", "config": {"name": "activation_258", "trainable": true, "dtype": "float32", "activation": "relu"}, "name": "activation_258", "inbound_nodes": [[["batch_normalization_263", 0, 0, {}]]]}, {"class_name": "Conv2D", "config": {"name": "conv2d_267", "trainable": true, "dtype": "float32", "filters": 160, "kernel_size": [1, 1], "strides": [1, 1], "padding": "same", "data_format": "channels_last", "dilation_rate": [1, 1], "groups": 1, "activation": "linear", "use_bias": false, "kernel_initializer": {"class_name": "GlorotUniform", "config": {"seed": null}}, "bias_initializer": {"class_name": "Zeros", "config": {}}, "kernel_regularizer": null, "bias_regularizer": null, "activity_regularizer": null, "kernel_constraint": null, "bias_constraint": null}, "name": "conv2d_267", "inbound_nodes": [[["mixed5", 0, 0, {}]]]}, {"class_name": "Conv2D", "config": {"name": "conv2d_272", "trainable": true, "dtype": "float32", "filters": 160, "kernel_size": [1, 7], "strides": [1, 1], "padding": "same", "data_format": "channels_last", "dilation_rate": [1, 1], "groups": 1, "activation": "linear", "use_bias": false, "kernel_initializer": {"class_name": "GlorotUniform", "config": {"seed": null}}, "bias_initializer": {"class_name": "Zeros", "config": {}}, "kernel_regularizer": null, "bias_regularizer": null, "activity_regularizer": null, "kernel_constraint": null, "bias_constraint": null}, "name": "conv2d_272", "inbound_nodes": [[["activation_258", 0, 0, {}]]]}, {"class_name": "BatchNormalization", "config": {"name": "batch_normalization_259", "trainable": true, "dtype": "float32", "axis": [3], "momentum": 0.99, "epsilon": 0.001, "center": true, "scale": false, "beta_initializer": {"class_name": "Zeros", "config": {}}, "gamma_initializer": {"class_name": "Ones", "config": {}}, "moving_mean_initializer": {"class_name": "Zeros", "config": {}}, "moving_variance_initializer": {"class_name": "Ones", "config": {}}, "beta_regularizer": null, "gamma_regularizer": null, "beta_constraint": null, "gamma_constraint": null}, "name": "batch_normalization_259", "inbound_nodes": [[["conv2d_267", 0, 0, {}]]]}, {"class_name": "BatchNormalization", "config": {"name": "batch_normalization_264", "trainable": true, "dtype": "float32", "axis": [3], "momentum": 0.99, "epsilon": 0.001, "center": true, "scale": false, "beta_initializer": {"class_name": "Zeros", "config": {}}, "gamma_initializer": {"class_name": "Ones", "config": {}}, "moving_mean_initializer": {"class_name": "Zeros", "config": {}}, "moving_variance_initializer": {"class_name": "Ones", "config": {}}, "beta_regularizer": null, "gamma_regularizer": null, "beta_constraint": null, "gamma_constraint": null}, "name": "batch_normalization_264", "inbound_nodes": [[["conv2d_272", 0, 0, {}]]]}, {"class_name": "Activation", "config": {"name": "activation_254", "trainable": true, "dtype": "float32", "activation": "relu"}, "name": "activation_254", "inbound_nodes": [[["batch_normalization_259", 0, 0, {}]]]}, {"class_name": "Activation", "config": {"name": "activation_259", "trainable": true, "dtype": "float32", "activation": "relu"}, "name": "activation_259", "inbound_nodes": [[["batch_normalization_264", 0, 0, {}]]]}, {"class_name": "Conv2D", "config": {"name": "conv2d_268", "trainable": true, "dtype": "float32", "filters": 160, "kernel_size": [1, 7], "strides": [1, 1], "padding": "same", "data_format": "channels_last", "dilation_rate": [1, 1], "groups": 1, "activation": "linear", "use_bias": false, "kernel_initializer": {"class_name": "GlorotUniform", "config": {"seed": null}}, "bias_initializer": {"class_name": "Zeros", "config": {}}, "kernel_regularizer": null, "bias_regularizer": null, "activity_regularizer": null, "kernel_constraint": null, "bias_constraint": null}, "name": "conv2d_268", "inbound_nodes": [[["activation_254", 0, 0, {}]]]}, {"class_name": "Conv2D", "config": {"name": "conv2d_273", "trainable": true, "dtype": "float32", "filters": 160, "kernel_size": [7, 1], "strides": [1, 1], "padding": "same", "data_format": "channels_last", "dilation_rate": [1, 1], "groups": 1, "activation": "linear", "use_bias": false, "kernel_initializer": {"class_name": "GlorotUniform", "config": {"seed": null}}, "bias_initializer": {"class_name": "Zeros", "config": {}}, "kernel_regularizer": null, "bias_regularizer": null, "activity_regularizer": null, "kernel_constraint": null, "bias_constraint": null}, "name": "conv2d_273", "inbound_nodes": [[["activation_259", 0, 0, {}]]]}, {"class_name": "BatchNormalization", "config": {"name": "batch_normalization_260", "trainable": true, "dtype": "float32", "axis": [3], "momentum": 0.99, "epsilon": 0.001, "center": true, "scale": false, "beta_initializer": {"class_name": "Zeros", "config": {}}, "gamma_initializer": {"class_name": "Ones", "config": {}}, "moving_mean_initializer": {"class_name": "Zeros", "config": {}}, "moving_variance_initializer": {"class_name": "Ones", "config": {}}, "beta_regularizer": null, "gamma_regularizer": null, "beta_constraint": null, "gamma_constraint": null}, "name": "batch_normalization_260", "inbound_nodes": [[["conv2d_268", 0, 0, {}]]]}, {"class_name": "BatchNormalization", "config": {"name": "batch_normalization_265", "trainable": true, "dtype": "float32", "axis": [3], "momentum": 0.99, "epsilon": 0.001, "center": true, "scale": false, "beta_initializer": {"class_name": "Zeros", "config": {}}, "gamma_initializer": {"class_name": "Ones", "config": {}}, "moving_mean_initializer": {"class_name": "Zeros", "config": {}}, "moving_variance_initializer": {"class_name": "Ones", "config": {}}, "beta_regularizer": null, "gamma_regularizer": null, "beta_constraint": null, "gamma_constraint": null}, "name": "batch_normalization_265", "inbound_nodes": [[["conv2d_273", 0, 0, {}]]]}, {"class_name": "Activation", "config": {"name": "activation_255", "trainable": true, "dtype": "float32", "activation": "relu"}, "name": "activation_255", "inbound_nodes": [[["batch_normalization_260", 0, 0, {}]]]}, {"class_name": "Activation", "config": {"name": "activation_260", "trainable": true, "dtype": "float32", "activation": "relu"}, "name": "activation_260", "inbound_nodes": [[["batch_normalization_265", 0, 0, {}]]]}, {"class_name": "AveragePooling2D", "config": {"name": "average_pooling2d_6", "trainable": true, "dtype": "float32", "pool_size": [3, 3], "padding": "same", "strides": [1, 1], "data_format": "channels_last"}, "name": "average_pooling2d_6", "inbound_nodes": [[["mixed5", 0, 0, {}]]]}, {"class_name": "Conv2D", "config": {"name": "conv2d_266", "trainable": true, "dtype": "float32", "filters": 192, "kernel_size": [1, 1], "strides": [1, 1], "padding": "same", "data_format": "channels_last", "dilation_rate": [1, 1], "groups": 1, "activation": "linear", "use_bias": false, "kernel_initializer": {"class_name": "GlorotUniform", "config": {"seed": null}}, "bias_initializer": {"class_name": "Zeros", "config": {}}, "kernel_regularizer": null, "bias_regularizer": null, "activity_regularizer": null, "kernel_constraint": null, "bias_constraint": null}, "name": "conv2d_266", "inbound_nodes": [[["mixed5", 0, 0, {}]]]}, {"class_name": "Conv2D", "config": {"name": "conv2d_269", "trainable": true, "dtype": "float32", "filters": 192, "kernel_size": [7, 1], "strides": [1, 1], "padding": "same", "data_format": "channels_last", "dilation_rate": [1, 1], "groups": 1, "activation": "linear", "use_bias": false, "kernel_initializer": {"class_name": "GlorotUniform", "config": {"seed": null}}, "bias_initializer": {"class_name": "Zeros", "config": {}}, "kernel_regularizer": null, "bias_regularizer": null, "activity_regularizer": null, "kernel_constraint": null, "bias_constraint": null}, "name": "conv2d_269", "inbound_nodes": [[["activation_255", 0, 0, {}]]]}, {"class_name": "Conv2D", "config": {"name": "conv2d_274", "trainable": true, "dtype": "float32", "filters": 192, "kernel_size": [1, 7], "strides": [1, 1], "padding": "same", "data_format": "channels_last", "dilation_rate": [1, 1], "groups": 1, "activation": "linear", "use_bias": false, "kernel_initializer": {"class_name": "GlorotUniform", "config": {"seed": null}}, "bias_initializer": {"class_name": "Zeros", "config": {}}, "kernel_regularizer": null, "bias_regularizer": null, "activity_regularizer": null, "kernel_constraint": null, "bias_constraint": null}, "name": "conv2d_274", "inbound_nodes": [[["activation_260", 0, 0, {}]]]}, {"class_name": "Conv2D", "config": {"name": "conv2d_275", "trainable": true, "dtype": "float32", "filters": 192, "kernel_size": [1, 1], "strides": [1, 1], "padding": "same", "data_format": "channels_last", "dilation_rate": [1, 1], "groups": 1, "activation": "linear", "use_bias": false, "kernel_initializer": {"class_name": "GlorotUniform", "config": {"seed": null}}, "bias_initializer": {"class_name": "Zeros", "config": {}}, "kernel_regularizer": null, "bias_regularizer": null, "activity_regularizer": null, "kernel_constraint": null, "bias_constraint": null}, "name": "conv2d_275", "inbound_nodes": [[["average_pooling2d_6", 0, 0, {}]]]}, {"class_name": "BatchNormalization", "config": {"name": "batch_normalization_258", "trainable": true, "dtype": "float32", "axis": [3], "momentum": 0.99, "epsilon": 0.001, "center": true, "scale": false, "beta_initializer": {"class_name": "Zeros", "config": {}}, "gamma_initializer": {"class_name": "Ones", "config": {}}, "moving_mean_initializer": {"class_name": "Zeros", "config": {}}, "moving_variance_initializer": {"class_name": "Ones", "config": {}}, "beta_regularizer": null, "gamma_regularizer": null, "beta_constraint": null, "gamma_constraint": null}, "name": "batch_normalization_258", "inbound_nodes": [[["conv2d_266", 0, 0, {}]]]}, {"class_name": "BatchNormalization", "config": {"name": "batch_normalization_261", "trainable": true, "dtype": "float32", "axis": [3], "momentum": 0.99, "epsilon": 0.001, "center": true, "scale": false, "beta_initializer": {"class_name": "Zeros", "config": {}}, "gamma_initializer": {"class_name": "Ones", "config": {}}, "moving_mean_initializer": {"class_name": "Zeros", "config": {}}, "moving_variance_initializer": {"class_name": "Ones", "config": {}}, "beta_regularizer": null, "gamma_regularizer": null, "beta_constraint": null, "gamma_constraint": null}, "name": "batch_normalization_261", "inbound_nodes": [[["conv2d_269", 0, 0, {}]]]}, {"class_name": "BatchNormalization", "config": {"name": "batch_normalization_266", "trainable": true, "dtype": "float32", "axis": [3], "momentum": 0.99, "epsilon": 0.001, "center": true, "scale": false, "beta_initializer": {"class_name": "Zeros", "config": {}}, "gamma_initializer": {"class_name": "Ones", "config": {}}, "moving_mean_initializer": {"class_name": "Zeros", "config": {}}, "moving_variance_initializer": {"class_name": "Ones", "config": {}}, "beta_regularizer": null, "gamma_regularizer": null, "beta_constraint": null, "gamma_constraint": null}, "name": "batch_normalization_266", "inbound_nodes": [[["conv2d_274", 0, 0, {}]]]}, {"class_name": "BatchNormalization", "config": {"name": "batch_normalization_267", "trainable": true, "dtype": "float32", "axis": [3], "momentum": 0.99, "epsilon": 0.001, "center": true, "scale": false, "beta_initializer": {"class_name": "Zeros", "config": {}}, "gamma_initializer": {"class_name": "Ones", "config": {}}, "moving_mean_initializer": {"class_name": "Zeros", "config": {}}, "moving_variance_initializer": {"class_name": "Ones", "config": {}}, "beta_regularizer": null, "gamma_regularizer": null, "beta_constraint": null, "gamma_constraint": null}, "name": "batch_normalization_267", "inbound_nodes": [[["conv2d_275", 0, 0, {}]]]}, {"class_name": "Activation", "config": {"name": "activation_253", "trainable": true, "dtype": "float32", "activation": "relu"}, "name": "activation_253", "inbound_nodes": [[["batch_normalization_258", 0, 0, {}]]]}, {"class_name": "Activation", "config": {"name": "activation_256", "trainable": true, "dtype": "float32", "activation": "relu"}, "name": "activation_256", "inbound_nodes": [[["batch_normalization_261", 0, 0, {}]]]}, {"class_name": "Activation", "config": {"name": "activation_261", "trainable": true, "dtype": "float32", "activation": "relu"}, "name": "activation_261", "inbound_nodes": [[["batch_normalization_266", 0, 0, {}]]]}, {"class_name": "Activation", "config": {"name": "activation_262", "trainable": true, "dtype": "float32", "activation": "relu"}, "name": "activation_262", "inbound_nodes": [[["batch_normalization_267", 0, 0, {}]]]}, {"class_name": "Concatenate", "config": {"name": "mixed6", "trainable": true, "dtype": "float32", "axis": 3}, "name": "mixed6", "inbound_nodes": [[["activation_253", 0, 0, {}], ["activation_256", 0, 0, {}], ["activation_261", 0, 0, {}], ["activation_262", 0, 0, {}]]]}, {"class_name": "Conv2D", "config": {"name": "conv2d_280", "trainable": true, "dtype": "float32", "filters": 192, "kernel_size": [1, 1], "strides": [1, 1], "padding": "same", "data_format": "channels_last", "dilation_rate": [1, 1], "groups": 1, "activation": "linear", "use_bias": false, "kernel_initializer": {"class_name": "GlorotUniform", "config": {"seed": null}}, "bias_initializer": {"class_name": "Zeros", "config": {}}, "kernel_regularizer": null, "bias_regularizer": null, "activity_regularizer": null, "kernel_constraint": null, "bias_constraint": null}, "name": "conv2d_280", "inbound_nodes": [[["mixed6", 0, 0, {}]]]}, {"class_name": "BatchNormalization", "config": {"name": "batch_normalization_272", "trainable": true, "dtype": "float32", "axis": [3], "momentum": 0.99, "epsilon": 0.001, "center": true, "scale": false, "beta_initializer": {"class_name": "Zeros", "config": {}}, "gamma_initializer": {"class_name": "Ones", "config": {}}, "moving_mean_initializer": {"class_name": "Zeros", "config": {}}, "moving_variance_initializer": {"class_name": "Ones", "config": {}}, "beta_regularizer": null, "gamma_regularizer": null, "beta_constraint": null, "gamma_constraint": null}, "name": "batch_normalization_272", "inbound_nodes": [[["conv2d_280", 0, 0, {}]]]}, {"class_name": "Activation", "config": {"name": "activation_267", "trainable": true, "dtype": "float32", "activation": "relu"}, "name": "activation_267", "inbound_nodes": [[["batch_normalization_272", 0, 0, {}]]]}, {"class_name": "Conv2D", "config": {"name": "conv2d_281", "trainable": true, "dtype": "float32", "filters": 192, "kernel_size": [7, 1], "strides": [1, 1], "padding": "same", "data_format": "channels_last", "dilation_rate": [1, 1], "groups": 1, "activation": "linear", "use_bias": false, "kernel_initializer": {"class_name": "GlorotUniform", "config": {"seed": null}}, "bias_initializer": {"class_name": "Zeros", "config": {}}, "kernel_regularizer": null, "bias_regularizer": null, "activity_regularizer": null, "kernel_constraint": null, "bias_constraint": null}, "name": "conv2d_281", "inbound_nodes": [[["activation_267", 0, 0, {}]]]}, {"class_name": "BatchNormalization", "config": {"name": "batch_normalization_273", "trainable": true, "dtype": "float32", "axis": [3], "momentum": 0.99, "epsilon": 0.001, "center": true, "scale": false, "beta_initializer": {"class_name": "Zeros", "config": {}}, "gamma_initializer": {"class_name": "Ones", "config": {}}, "moving_mean_initializer": {"class_name": "Zeros", "config": {}}, "moving_variance_initializer": {"class_name": "Ones", "config": {}}, "beta_regularizer": null, "gamma_regularizer": null, "beta_constraint": null, "gamma_constraint": null}, "name": "batch_normalization_273", "inbound_nodes": [[["conv2d_281", 0, 0, {}]]]}, {"class_name": "Activation", "config": {"name": "activation_268", "trainable": true, "dtype": "float32", "activation": "relu"}, "name": "activation_268", "inbound_nodes": [[["batch_normalization_273", 0, 0, {}]]]}, {"class_name": "Conv2D", "config": {"name": "conv2d_277", "trainable": true, "dtype": "float32", "filters": 192, "kernel_size": [1, 1], "strides": [1, 1], "padding": "same", "data_format": "channels_last", "dilation_rate": [1, 1], "groups": 1, "activation": "linear", "use_bias": false, "kernel_initializer": {"class_name": "GlorotUniform", "config": {"seed": null}}, "bias_initializer": {"class_name": "Zeros", "config": {}}, "kernel_regularizer": null, "bias_regularizer": null, "activity_regularizer": null, "kernel_constraint": null, "bias_constraint": null}, "name": "conv2d_277", "inbound_nodes": [[["mixed6", 0, 0, {}]]]}, {"class_name": "Conv2D", "config": {"name": "conv2d_282", "trainable": true, "dtype": "float32", "filters": 192, "kernel_size": [1, 7], "strides": [1, 1], "padding": "same", "data_format": "channels_last", "dilation_rate": [1, 1], "groups": 1, "activation": "linear", "use_bias": false, "kernel_initializer": {"class_name": "GlorotUniform", "config": {"seed": null}}, "bias_initializer": {"class_name": "Zeros", "config": {}}, "kernel_regularizer": null, "bias_regularizer": null, "activity_regularizer": null, "kernel_constraint": null, "bias_constraint": null}, "name": "conv2d_282", "inbound_nodes": [[["activation_268", 0, 0, {}]]]}, {"class_name": "BatchNormalization", "config": {"name": "batch_normalization_269", "trainable": true, "dtype": "float32", "axis": [3], "momentum": 0.99, "epsilon": 0.001, "center": true, "scale": false, "beta_initializer": {"class_name": "Zeros", "config": {}}, "gamma_initializer": {"class_name": "Ones", "config": {}}, "moving_mean_initializer": {"class_name": "Zeros", "config": {}}, "moving_variance_initializer": {"class_name": "Ones", "config": {}}, "beta_regularizer": null, "gamma_regularizer": null, "beta_constraint": null, "gamma_constraint": null}, "name": "batch_normalization_269", "inbound_nodes": [[["conv2d_277", 0, 0, {}]]]}, {"class_name": "BatchNormalization", "config": {"name": "batch_normalization_274", "trainable": true, "dtype": "float32", "axis": [3], "momentum": 0.99, "epsilon": 0.001, "center": true, "scale": false, "beta_initializer": {"class_name": "Zeros", "config": {}}, "gamma_initializer": {"class_name": "Ones", "config": {}}, "moving_mean_initializer": {"class_name": "Zeros", "config": {}}, "moving_variance_initializer": {"class_name": "Ones", "config": {}}, "beta_regularizer": null, "gamma_regularizer": null, "beta_constraint": null, "gamma_constraint": null}, "name": "batch_normalization_274", "inbound_nodes": [[["conv2d_282", 0, 0, {}]]]}, {"class_name": "Activation", "config": {"name": "activation_264", "trainable": true, "dtype": "float32", "activation": "relu"}, "name": "activation_264", "inbound_nodes": [[["batch_normalization_269", 0, 0, {}]]]}, {"class_name": "Activation", "config": {"name": "activation_269", "trainable": true, "dtype": "float32", "activation": "relu"}, "name": "activation_269", "inbound_nodes": [[["batch_normalization_274", 0, 0, {}]]]}, {"class_name": "Conv2D", "config": {"name": "conv2d_278", "trainable": true, "dtype": "float32", "filters": 192, "kernel_size": [1, 7], "strides": [1, 1], "padding": "same", "data_format": "channels_last", "dilation_rate": [1, 1], "groups": 1, "activation": "linear", "use_bias": false, "kernel_initializer": {"class_name": "GlorotUniform", "config": {"seed": null}}, "bias_initializer": {"class_name": "Zeros", "config": {}}, "kernel_regularizer": null, "bias_regularizer": null, "activity_regularizer": null, "kernel_constraint": null, "bias_constraint": null}, "name": "conv2d_278", "inbound_nodes": [[["activation_264", 0, 0, {}]]]}, {"class_name": "Conv2D", "config": {"name": "conv2d_283", "trainable": true, "dtype": "float32", "filters": 192, "kernel_size": [7, 1], "strides": [1, 1], "padding": "same", "data_format": "channels_last", "dilation_rate": [1, 1], "groups": 1, "activation": "linear", "use_bias": false, "kernel_initializer": {"class_name": "GlorotUniform", "config": {"seed": null}}, "bias_initializer": {"class_name": "Zeros", "config": {}}, "kernel_regularizer": null, "bias_regularizer": null, "activity_regularizer": null, "kernel_constraint": null, "bias_constraint": null}, "name": "conv2d_283", "inbound_nodes": [[["activation_269", 0, 0, {}]]]}, {"class_name": "BatchNormalization", "config": {"name": "batch_normalization_270", "trainable": true, "dtype": "float32", "axis": [3], "momentum": 0.99, "epsilon": 0.001, "center": true, "scale": false, "beta_initializer": {"class_name": "Zeros", "config": {}}, "gamma_initializer": {"class_name": "Ones", "config": {}}, "moving_mean_initializer": {"class_name": "Zeros", "config": {}}, "moving_variance_initializer": {"class_name": "Ones", "config": {}}, "beta_regularizer": null, "gamma_regularizer": null, "beta_constraint": null, "gamma_constraint": null}, "name": "batch_normalization_270", "inbound_nodes": [[["conv2d_278", 0, 0, {}]]]}, {"class_name": "BatchNormalization", "config": {"name": "batch_normalization_275", "trainable": true, "dtype": "float32", "axis": [3], "momentum": 0.99, "epsilon": 0.001, "center": true, "scale": false, "beta_initializer": {"class_name": "Zeros", "config": {}}, "gamma_initializer": {"class_name": "Ones", "config": {}}, "moving_mean_initializer": {"class_name": "Zeros", "config": {}}, "moving_variance_initializer": {"class_name": "Ones", "config": {}}, "beta_regularizer": null, "gamma_regularizer": null, "beta_constraint": null, "gamma_constraint": null}, "name": "batch_normalization_275", "inbound_nodes": [[["conv2d_283", 0, 0, {}]]]}, {"class_name": "Activation", "config": {"name": "activation_265", "trainable": true, "dtype": "float32", "activation": "relu"}, "name": "activation_265", "inbound_nodes": [[["batch_normalization_270", 0, 0, {}]]]}, {"class_name": "Activation", "config": {"name": "activation_270", "trainable": true, "dtype": "float32", "activation": "relu"}, "name": "activation_270", "inbound_nodes": [[["batch_normalization_275", 0, 0, {}]]]}, {"class_name": "AveragePooling2D", "config": {"name": "average_pooling2d_7", "trainable": true, "dtype": "float32", "pool_size": [3, 3], "padding": "same", "strides": [1, 1], "data_format": "channels_last"}, "name": "average_pooling2d_7", "inbound_nodes": [[["mixed6", 0, 0, {}]]]}, {"class_name": "Conv2D", "config": {"name": "conv2d_276", "trainable": true, "dtype": "float32", "filters": 192, "kernel_size": [1, 1], "strides": [1, 1], "padding": "same", "data_format": "channels_last", "dilation_rate": [1, 1], "groups": 1, "activation": "linear", "use_bias": false, "kernel_initializer": {"class_name": "GlorotUniform", "config": {"seed": null}}, "bias_initializer": {"class_name": "Zeros", "config": {}}, "kernel_regularizer": null, "bias_regularizer": null, "activity_regularizer": null, "kernel_constraint": null, "bias_constraint": null}, "name": "conv2d_276", "inbound_nodes": [[["mixed6", 0, 0, {}]]]}, {"class_name": "Conv2D", "config": {"name": "conv2d_279", "trainable": true, "dtype": "float32", "filters": 192, "kernel_size": [7, 1], "strides": [1, 1], "padding": "same", "data_format": "channels_last", "dilation_rate": [1, 1], "groups": 1, "activation": "linear", "use_bias": false, "kernel_initializer": {"class_name": "GlorotUniform", "config": {"seed": null}}, "bias_initializer": {"class_name": "Zeros", "config": {}}, "kernel_regularizer": null, "bias_regularizer": null, "activity_regularizer": null, "kernel_constraint": null, "bias_constraint": null}, "name": "conv2d_279", "inbound_nodes": [[["activation_265", 0, 0, {}]]]}, {"class_name": "Conv2D", "config": {"name": "conv2d_284", "trainable": true, "dtype": "float32", "filters": 192, "kernel_size": [1, 7], "strides": [1, 1], "padding": "same", "data_format": "channels_last", "dilation_rate": [1, 1], "groups": 1, "activation": "linear", "use_bias": false, "kernel_initializer": {"class_name": "GlorotUniform", "config": {"seed": null}}, "bias_initializer": {"class_name": "Zeros", "config": {}}, "kernel_regularizer": null, "bias_regularizer": null, "activity_regularizer": null, "kernel_constraint": null, "bias_constraint": null}, "name": "conv2d_284", "inbound_nodes": [[["activation_270", 0, 0, {}]]]}, {"class_name": "Conv2D", "config": {"name": "conv2d_285", "trainable": true, "dtype": "float32", "filters": 192, "kernel_size": [1, 1], "strides": [1, 1], "padding": "same", "data_format": "channels_last", "dilation_rate": [1, 1], "groups": 1, "activation": "linear", "use_bias": false, "kernel_initializer": {"class_name": "GlorotUniform", "config": {"seed": null}}, "bias_initializer": {"class_name": "Zeros", "config": {}}, "kernel_regularizer": null, "bias_regularizer": null, "activity_regularizer": null, "kernel_constraint": null, "bias_constraint": null}, "name": "conv2d_285", "inbound_nodes": [[["average_pooling2d_7", 0, 0, {}]]]}, {"class_name": "BatchNormalization", "config": {"name": "batch_normalization_268", "trainable": true, "dtype": "float32", "axis": [3], "momentum": 0.99, "epsilon": 0.001, "center": true, "scale": false, "beta_initializer": {"class_name": "Zeros", "config": {}}, "gamma_initializer": {"class_name": "Ones", "config": {}}, "moving_mean_initializer": {"class_name": "Zeros", "config": {}}, "moving_variance_initializer": {"class_name": "Ones", "config": {}}, "beta_regularizer": null, "gamma_regularizer": null, "beta_constraint": null, "gamma_constraint": null}, "name": "batch_normalization_268", "inbound_nodes": [[["conv2d_276", 0, 0, {}]]]}, {"class_name": "BatchNormalization", "config": {"name": "batch_normalization_271", "trainable": true, "dtype": "float32", "axis": [3], "momentum": 0.99, "epsilon": 0.001, "center": true, "scale": false, "beta_initializer": {"class_name": "Zeros", "config": {}}, "gamma_initializer": {"class_name": "Ones", "config": {}}, "moving_mean_initializer": {"class_name": "Zeros", "config": {}}, "moving_variance_initializer": {"class_name": "Ones", "config": {}}, "beta_regularizer": null, "gamma_regularizer": null, "beta_constraint": null, "gamma_constraint": null}, "name": "batch_normalization_271", "inbound_nodes": [[["conv2d_279", 0, 0, {}]]]}, {"class_name": "BatchNormalization", "config": {"name": "batch_normalization_276", "trainable": true, "dtype": "float32", "axis": [3], "momentum": 0.99, "epsilon": 0.001, "center": true, "scale": false, "beta_initializer": {"class_name": "Zeros", "config": {}}, "gamma_initializer": {"class_name": "Ones", "config": {}}, "moving_mean_initializer": {"class_name": "Zeros", "config": {}}, "moving_variance_initializer": {"class_name": "Ones", "config": {}}, "beta_regularizer": null, "gamma_regularizer": null, "beta_constraint": null, "gamma_constraint": null}, "name": "batch_normalization_276", "inbound_nodes": [[["conv2d_284", 0, 0, {}]]]}, {"class_name": "BatchNormalization", "config": {"name": "batch_normalization_277", "trainable": true, "dtype": "float32", "axis": [3], "momentum": 0.99, "epsilon": 0.001, "center": true, "scale": false, "beta_initializer": {"class_name": "Zeros", "config": {}}, "gamma_initializer": {"class_name": "Ones", "config": {}}, "moving_mean_initializer": {"class_name": "Zeros", "config": {}}, "moving_variance_initializer": {"class_name": "Ones", "config": {}}, "beta_regularizer": null, "gamma_regularizer": null, "beta_constraint": null, "gamma_constraint": null}, "name": "batch_normalization_277", "inbound_nodes": [[["conv2d_285", 0, 0, {}]]]}, {"class_name": "Activation", "config": {"name": "activation_263", "trainable": true, "dtype": "float32", "activation": "relu"}, "name": "activation_263", "inbound_nodes": [[["batch_normalization_268", 0, 0, {}]]]}, {"class_name": "Activation", "config": {"name": "activation_266", "trainable": true, "dtype": "float32", "activation": "relu"}, "name": "activation_266", "inbound_nodes": [[["batch_normalization_271", 0, 0, {}]]]}, {"class_name": "Activation", "config": {"name": "activation_271", "trainable": true, "dtype": "float32", "activation": "relu"}, "name": "activation_271", "inbound_nodes": [[["batch_normalization_276", 0, 0, {}]]]}, {"class_name": "Activation", "config": {"name": "activation_272", "trainable": true, "dtype": "float32", "activation": "relu"}, "name": "activation_272", "inbound_nodes": [[["batch_normalization_277", 0, 0, {}]]]}, {"class_name": "Concatenate", "config": {"name": "mixed7", "trainable": true, "dtype": "float32", "axis": 3}, "name": "mixed7", "inbound_nodes": [[["activation_263", 0, 0, {}], ["activation_266", 0, 0, {}], ["activation_271", 0, 0, {}], ["activation_272", 0, 0, {}]]]}, {"class_name": "Conv2D", "config": {"name": "conv2d_288", "trainable": true, "dtype": "float32", "filters": 192, "kernel_size": [1, 1], "strides": [1, 1], "padding": "same", "data_format": "channels_last", "dilation_rate": [1, 1], "groups": 1, "activation": "linear", "use_bias": false, "kernel_initializer": {"class_name": "GlorotUniform", "config": {"seed": null}}, "bias_initializer": {"class_name": "Zeros", "config": {}}, "kernel_regularizer": null, "bias_regularizer": null, "activity_regularizer": null, "kernel_constraint": null, "bias_constraint": null}, "name": "conv2d_288", "inbound_nodes": [[["mixed7", 0, 0, {}]]]}, {"class_name": "BatchNormalization", "config": {"name": "batch_normalization_280", "trainable": true, "dtype": "float32", "axis": [3], "momentum": 0.99, "epsilon": 0.001, "center": true, "scale": false, "beta_initializer": {"class_name": "Zeros", "config": {}}, "gamma_initializer": {"class_name": "Ones", "config": {}}, "moving_mean_initializer": {"class_name": "Zeros", "config": {}}, "moving_variance_initializer": {"class_name": "Ones", "config": {}}, "beta_regularizer": null, "gamma_regularizer": null, "beta_constraint": null, "gamma_constraint": null}, "name": "batch_normalization_280", "inbound_nodes": [[["conv2d_288", 0, 0, {}]]]}, {"class_name": "Activation", "config": {"name": "activation_275", "trainable": true, "dtype": "float32", "activation": "relu"}, "name": "activation_275", "inbound_nodes": [[["batch_normalization_280", 0, 0, {}]]]}, {"class_name": "Conv2D", "config": {"name": "conv2d_289", "trainable": true, "dtype": "float32", "filters": 192, "kernel_size": [1, 7], "strides": [1, 1], "padding": "same", "data_format": "channels_last", "dilation_rate": [1, 1], "groups": 1, "activation": "linear", "use_bias": false, "kernel_initializer": {"class_name": "GlorotUniform", "config": {"seed": null}}, "bias_initializer": {"class_name": "Zeros", "config": {}}, "kernel_regularizer": null, "bias_regularizer": null, "activity_regularizer": null, "kernel_constraint": null, "bias_constraint": null}, "name": "conv2d_289", "inbound_nodes": [[["activation_275", 0, 0, {}]]]}, {"class_name": "BatchNormalization", "config": {"name": "batch_normalization_281", "trainable": true, "dtype": "float32", "axis": [3], "momentum": 0.99, "epsilon": 0.001, "center": true, "scale": false, "beta_initializer": {"class_name": "Zeros", "config": {}}, "gamma_initializer": {"class_name": "Ones", "config": {}}, "moving_mean_initializer": {"class_name": "Zeros", "config": {}}, "moving_variance_initializer": {"class_name": "Ones", "config": {}}, "beta_regularizer": null, "gamma_regularizer": null, "beta_constraint": null, "gamma_constraint": null}, "name": "batch_normalization_281", "inbound_nodes": [[["conv2d_289", 0, 0, {}]]]}, {"class_name": "Activation", "config": {"name": "activation_276", "trainable": true, "dtype": "float32", "activation": "relu"}, "name": "activation_276", "inbound_nodes": [[["batch_normalization_281", 0, 0, {}]]]}, {"class_name": "Conv2D", "config": {"name": "conv2d_286", "trainable": true, "dtype": "float32", "filters": 192, "kernel_size": [1, 1], "strides": [1, 1], "padding": "same", "data_format": "channels_last", "dilation_rate": [1, 1], "groups": 1, "activation": "linear", "use_bias": false, "kernel_initializer": {"class_name": "GlorotUniform", "config": {"seed": null}}, "bias_initializer": {"class_name": "Zeros", "config": {}}, "kernel_regularizer": null, "bias_regularizer": null, "activity_regularizer": null, "kernel_constraint": null, "bias_constraint": null}, "name": "conv2d_286", "inbound_nodes": [[["mixed7", 0, 0, {}]]]}, {"class_name": "Conv2D", "config": {"name": "conv2d_290", "trainable": true, "dtype": "float32", "filters": 192, "kernel_size": [7, 1], "strides": [1, 1], "padding": "same", "data_format": "channels_last", "dilation_rate": [1, 1], "groups": 1, "activation": "linear", "use_bias": false, "kernel_initializer": {"class_name": "GlorotUniform", "config": {"seed": null}}, "bias_initializer": {"class_name": "Zeros", "config": {}}, "kernel_regularizer": null, "bias_regularizer": null, "activity_regularizer": null, "kernel_constraint": null, "bias_constraint": null}, "name": "conv2d_290", "inbound_nodes": [[["activation_276", 0, 0, {}]]]}, {"class_name": "BatchNormalization", "config": {"name": "batch_normalization_278", "trainable": true, "dtype": "float32", "axis": [3], "momentum": 0.99, "epsilon": 0.001, "center": true, "scale": false, "beta_initializer": {"class_name": "Zeros", "config": {}}, "gamma_initializer": {"class_name": "Ones", "config": {}}, "moving_mean_initializer": {"class_name": "Zeros", "config": {}}, "moving_variance_initializer": {"class_name": "Ones", "config": {}}, "beta_regularizer": null, "gamma_regularizer": null, "beta_constraint": null, "gamma_constraint": null}, "name": "batch_normalization_278", "inbound_nodes": [[["conv2d_286", 0, 0, {}]]]}, {"class_name": "BatchNormalization", "config": {"name": "batch_normalization_282", "trainable": true, "dtype": "float32", "axis": [3], "momentum": 0.99, "epsilon": 0.001, "center": true, "scale": false, "beta_initializer": {"class_name": "Zeros", "config": {}}, "gamma_initializer": {"class_name": "Ones", "config": {}}, "moving_mean_initializer": {"class_name": "Zeros", "config": {}}, "moving_variance_initializer": {"class_name": "Ones", "config": {}}, "beta_regularizer": null, "gamma_regularizer": null, "beta_constraint": null, "gamma_constraint": null}, "name": "batch_normalization_282", "inbound_nodes": [[["conv2d_290", 0, 0, {}]]]}, {"class_name": "Activation", "config": {"name": "activation_273", "trainable": true, "dtype": "float32", "activation": "relu"}, "name": "activation_273", "inbound_nodes": [[["batch_normalization_278", 0, 0, {}]]]}, {"class_name": "Activation", "config": {"name": "activation_277", "trainable": true, "dtype": "float32", "activation": "relu"}, "name": "activation_277", "inbound_nodes": [[["batch_normalization_282", 0, 0, {}]]]}, {"class_name": "Conv2D", "config": {"name": "conv2d_287", "trainable": true, "dtype": "float32", "filters": 320, "kernel_size": [3, 3], "strides": [2, 2], "padding": "valid", "data_format": "channels_last", "dilation_rate": [1, 1], "groups": 1, "activation": "linear", "use_bias": false, "kernel_initializer": {"class_name": "GlorotUniform", "config": {"seed": null}}, "bias_initializer": {"class_name": "Zeros", "config": {}}, "kernel_regularizer": null, "bias_regularizer": null, "activity_regularizer": null, "kernel_constraint": null, "bias_constraint": null}, "name": "conv2d_287", "inbound_nodes": [[["activation_273", 0, 0, {}]]]}, {"class_name": "Conv2D", "config": {"name": "conv2d_291", "trainable": true, "dtype": "float32", "filters": 192, "kernel_size": [3, 3], "strides": [2, 2], "padding": "valid", "data_format": "channels_last", "dilation_rate": [1, 1], "groups": 1, "activation": "linear", "use_bias": false, "kernel_initializer": {"class_name": "GlorotUniform", "config": {"seed": null}}, "bias_initializer": {"class_name": "Zeros", "config": {}}, "kernel_regularizer": null, "bias_regularizer": null, "activity_regularizer": null, "kernel_constraint": null, "bias_constraint": null}, "name": "conv2d_291", "inbound_nodes": [[["activation_277", 0, 0, {}]]]}, {"class_name": "BatchNormalization", "config": {"name": "batch_normalization_279", "trainable": true, "dtype": "float32", "axis": [3], "momentum": 0.99, "epsilon": 0.001, "center": true, "scale": false, "beta_initializer": {"class_name": "Zeros", "config": {}}, "gamma_initializer": {"class_name": "Ones", "config": {}}, "moving_mean_initializer": {"class_name": "Zeros", "config": {}}, "moving_variance_initializer": {"class_name": "Ones", "config": {}}, "beta_regularizer": null, "gamma_regularizer": null, "beta_constraint": null, "gamma_constraint": null}, "name": "batch_normalization_279", "inbound_nodes": [[["conv2d_287", 0, 0, {}]]]}, {"class_name": "BatchNormalization", "config": {"name": "batch_normalization_283", "trainable": true, "dtype": "float32", "axis": [3], "momentum": 0.99, "epsilon": 0.001, "center": true, "scale": false, "beta_initializer": {"class_name": "Zeros", "config": {}}, "gamma_initializer": {"class_name": "Ones", "config": {}}, "moving_mean_initializer": {"class_name": "Zeros", "config": {}}, "moving_variance_initializer": {"class_name": "Ones", "config": {}}, "beta_regularizer": null, "gamma_regularizer": null, "beta_constraint": null, "gamma_constraint": null}, "name": "batch_normalization_283", "inbound_nodes": [[["conv2d_291", 0, 0, {}]]]}, {"class_name": "Activation", "config": {"name": "activation_274", "trainable": true, "dtype": "float32", "activation": "relu"}, "name": "activation_274", "inbound_nodes": [[["batch_normalization_279", 0, 0, {}]]]}, {"class_name": "Activation", "config": {"name": "activation_278", "trainable": true, "dtype": "float32", "activation": "relu"}, "name": "activation_278", "inbound_nodes": [[["batch_normalization_283", 0, 0, {}]]]}, {"class_name": "MaxPooling2D", "config": {"name": "max_pooling2d_9", "trainable": true, "dtype": "float32", "pool_size": [3, 3], "padding": "valid", "strides": [2, 2], "data_format": "channels_last"}, "name": "max_pooling2d_9", "inbound_nodes": [[["mixed7", 0, 0, {}]]]}, {"class_name": "Concatenate", "config": {"name": "mixed8", "trainable": true, "dtype": "float32", "axis": 3}, "name": "mixed8", "inbound_nodes": [[["activation_274", 0, 0, {}], ["activation_278", 0, 0, {}], ["max_pooling2d_9", 0, 0, {}]]]}, {"class_name": "Conv2D", "config": {"name": "conv2d_296", "trainable": true, "dtype": "float32", "filters": 448, "kernel_size": [1, 1], "strides": [1, 1], "padding": "same", "data_format": "channels_last", "dilation_rate": [1, 1], "groups": 1, "activation": "linear", "use_bias": false, "kernel_initializer": {"class_name": "GlorotUniform", "config": {"seed": null}}, "bias_initializer": {"class_name": "Zeros", "config": {}}, "kernel_regularizer": null, "bias_regularizer": null, "activity_regularizer": null, "kernel_constraint": null, "bias_constraint": null}, "name": "conv2d_296", "inbound_nodes": [[["mixed8", 0, 0, {}]]]}, {"class_name": "BatchNormalization", "config": {"name": "batch_normalization_288", "trainable": true, "dtype": "float32", "axis": [3], "momentum": 0.99, "epsilon": 0.001, "center": true, "scale": false, "beta_initializer": {"class_name": "Zeros", "config": {}}, "gamma_initializer": {"class_name": "Ones", "config": {}}, "moving_mean_initializer": {"class_name": "Zeros", "config": {}}, "moving_variance_initializer": {"class_name": "Ones", "config": {}}, "beta_regularizer": null, "gamma_regularizer": null, "beta_constraint": null, "gamma_constraint": null}, "name": "batch_normalization_288", "inbound_nodes": [[["conv2d_296", 0, 0, {}]]]}, {"class_name": "Activation", "config": {"name": "activation_283", "trainable": true, "dtype": "float32", "activation": "relu"}, "name": "activation_283", "inbound_nodes": [[["batch_normalization_288", 0, 0, {}]]]}, {"class_name": "Conv2D", "config": {"name": "conv2d_293", "trainable": true, "dtype": "float32", "filters": 384, "kernel_size": [1, 1], "strides": [1, 1], "padding": "same", "data_format": "channels_last", "dilation_rate": [1, 1], "groups": 1, "activation": "linear", "use_bias": false, "kernel_initializer": {"class_name": "GlorotUniform", "config": {"seed": null}}, "bias_initializer": {"class_name": "Zeros", "config": {}}, "kernel_regularizer": null, "bias_regularizer": null, "activity_regularizer": null, "kernel_constraint": null, "bias_constraint": null}, "name": "conv2d_293", "inbound_nodes": [[["mixed8", 0, 0, {}]]]}, {"class_name": "Conv2D", "config": {"name": "conv2d_297", "trainable": true, "dtype": "float32", "filters": 384, "kernel_size": [3, 3], "strides": [1, 1], "padding": "same", "data_format": "channels_last", "dilation_rate": [1, 1], "groups": 1, "activation": "linear", "use_bias": false, "kernel_initializer": {"class_name": "GlorotUniform", "config": {"seed": null}}, "bias_initializer": {"class_name": "Zeros", "config": {}}, "kernel_regularizer": null, "bias_regularizer": null, "activity_regularizer": null, "kernel_constraint": null, "bias_constraint": null}, "name": "conv2d_297", "inbound_nodes": [[["activation_283", 0, 0, {}]]]}, {"class_name": "BatchNormalization", "config": {"name": "batch_normalization_285", "trainable": true, "dtype": "float32", "axis": [3], "momentum": 0.99, "epsilon": 0.001, "center": true, "scale": false, "beta_initializer": {"class_name": "Zeros", "config": {}}, "gamma_initializer": {"class_name": "Ones", "config": {}}, "moving_mean_initializer": {"class_name": "Zeros", "config": {}}, "moving_variance_initializer": {"class_name": "Ones", "config": {}}, "beta_regularizer": null, "gamma_regularizer": null, "beta_constraint": null, "gamma_constraint": null}, "name": "batch_normalization_285", "inbound_nodes": [[["conv2d_293", 0, 0, {}]]]}, {"class_name": "BatchNormalization", "config": {"name": "batch_normalization_289", "trainable": true, "dtype": "float32", "axis": [3], "momentum": 0.99, "epsilon": 0.001, "center": true, "scale": false, "beta_initializer": {"class_name": "Zeros", "config": {}}, "gamma_initializer": {"class_name": "Ones", "config": {}}, "moving_mean_initializer": {"class_name": "Zeros", "config": {}}, "moving_variance_initializer": {"class_name": "Ones", "config": {}}, "beta_regularizer": null, "gamma_regularizer": null, "beta_constraint": null, "gamma_constraint": null}, "name": "batch_normalization_289", "inbound_nodes": [[["conv2d_297", 0, 0, {}]]]}, {"class_name": "Activation", "config": {"name": "activation_280", "trainable": true, "dtype": "float32", "activation": "relu"}, "name": "activation_280", "inbound_nodes": [[["batch_normalization_285", 0, 0, {}]]]}, {"class_name": "Activation", "config": {"name": "activation_284", "trainable": true, "dtype": "float32", "activation": "relu"}, "name": "activation_284", "inbound_nodes": [[["batch_normalization_289", 0, 0, {}]]]}, {"class_name": "Conv2D", "config": {"name": "conv2d_294", "trainable": true, "dtype": "float32", "filters": 384, "kernel_size": [1, 3], "strides": [1, 1], "padding": "same", "data_format": "channels_last", "dilation_rate": [1, 1], "groups": 1, "activation": "linear", "use_bias": false, "kernel_initializer": {"class_name": "GlorotUniform", "config": {"seed": null}}, "bias_initializer": {"class_name": "Zeros", "config": {}}, "kernel_regularizer": null, "bias_regularizer": null, "activity_regularizer": null, "kernel_constraint": null, "bias_constraint": null}, "name": "conv2d_294", "inbound_nodes": [[["activation_280", 0, 0, {}]]]}, {"class_name": "Conv2D", "config": {"name": "conv2d_295", "trainable": true, "dtype": "float32", "filters": 384, "kernel_size": [3, 1], "strides": [1, 1], "padding": "same", "data_format": "channels_last", "dilation_rate": [1, 1], "groups": 1, "activation": "linear", "use_bias": false, "kernel_initializer": {"class_name": "GlorotUniform", "config": {"seed": null}}, "bias_initializer": {"class_name": "Zeros", "config": {}}, "kernel_regularizer": null, "bias_regularizer": null, "activity_regularizer": null, "kernel_constraint": null, "bias_constraint": null}, "name": "conv2d_295", "inbound_nodes": [[["activation_280", 0, 0, {}]]]}, {"class_name": "Conv2D", "config": {"name": "conv2d_298", "trainable": true, "dtype": "float32", "filters": 384, "kernel_size": [1, 3], "strides": [1, 1], "padding": "same", "data_format": "channels_last", "dilation_rate": [1, 1], "groups": 1, "activation": "linear", "use_bias": false, "kernel_initializer": {"class_name": "GlorotUniform", "config": {"seed": null}}, "bias_initializer": {"class_name": "Zeros", "config": {}}, "kernel_regularizer": null, "bias_regularizer": null, "activity_regularizer": null, "kernel_constraint": null, "bias_constraint": null}, "name": "conv2d_298", "inbound_nodes": [[["activation_284", 0, 0, {}]]]}, {"class_name": "Conv2D", "config": {"name": "conv2d_299", "trainable": true, "dtype": "float32", "filters": 384, "kernel_size": [3, 1], "strides": [1, 1], "padding": "same", "data_format": "channels_last", "dilation_rate": [1, 1], "groups": 1, "activation": "linear", "use_bias": false, "kernel_initializer": {"class_name": "GlorotUniform", "config": {"seed": null}}, "bias_initializer": {"class_name": "Zeros", "config": {}}, "kernel_regularizer": null, "bias_regularizer": null, "activity_regularizer": null, "kernel_constraint": null, "bias_constraint": null}, "name": "conv2d_299", "inbound_nodes": [[["activation_284", 0, 0, {}]]]}, {"class_name": "AveragePooling2D", "config": {"name": "average_pooling2d_8", "trainable": true, "dtype": "float32", "pool_size": [3, 3], "padding": "same", "strides": [1, 1], "data_format": "channels_last"}, "name": "average_pooling2d_8", "inbound_nodes": [[["mixed8", 0, 0, {}]]]}, {"class_name": "Conv2D", "config": {"name": "conv2d_292", "trainable": true, "dtype": "float32", "filters": 320, "kernel_size": [1, 1], "strides": [1, 1], "padding": "same", "data_format": "channels_last", "dilation_rate": [1, 1], "groups": 1, "activation": "linear", "use_bias": false, "kernel_initializer": {"class_name": "GlorotUniform", "config": {"seed": null}}, "bias_initializer": {"class_name": "Zeros", "config": {}}, "kernel_regularizer": null, "bias_regularizer": null, "activity_regularizer": null, "kernel_constraint": null, "bias_constraint": null}, "name": "conv2d_292", "inbound_nodes": [[["mixed8", 0, 0, {}]]]}, {"class_name": "BatchNormalization", "config": {"name": "batch_normalization_286", "trainable": true, "dtype": "float32", "axis": [3], "momentum": 0.99, "epsilon": 0.001, "center": true, "scale": false, "beta_initializer": {"class_name": "Zeros", "config": {}}, "gamma_initializer": {"class_name": "Ones", "config": {}}, "moving_mean_initializer": {"class_name": "Zeros", "config": {}}, "moving_variance_initializer": {"class_name": "Ones", "config": {}}, "beta_regularizer": null, "gamma_regularizer": null, "beta_constraint": null, "gamma_constraint": null}, "name": "batch_normalization_286", "inbound_nodes": [[["conv2d_294", 0, 0, {}]]]}, {"class_name": "BatchNormalization", "config": {"name": "batch_normalization_287", "trainable": true, "dtype": "float32", "axis": [3], "momentum": 0.99, "epsilon": 0.001, "center": true, "scale": false, "beta_initializer": {"class_name": "Zeros", "config": {}}, "gamma_initializer": {"class_name": "Ones", "config": {}}, "moving_mean_initializer": {"class_name": "Zeros", "config": {}}, "moving_variance_initializer": {"class_name": "Ones", "config": {}}, "beta_regularizer": null, "gamma_regularizer": null, "beta_constraint": null, "gamma_constraint": null}, "name": "batch_normalization_287", "inbound_nodes": [[["conv2d_295", 0, 0, {}]]]}, {"class_name": "BatchNormalization", "config": {"name": "batch_normalization_290", "trainable": true, "dtype": "float32", "axis": [3], "momentum": 0.99, "epsilon": 0.001, "center": true, "scale": false, "beta_initializer": {"class_name": "Zeros", "config": {}}, "gamma_initializer": {"class_name": "Ones", "config": {}}, "moving_mean_initializer": {"class_name": "Zeros", "config": {}}, "moving_variance_initializer": {"class_name": "Ones", "config": {}}, "beta_regularizer": null, "gamma_regularizer": null, "beta_constraint": null, "gamma_constraint": null}, "name": "batch_normalization_290", "inbound_nodes": [[["conv2d_298", 0, 0, {}]]]}, {"class_name": "BatchNormalization", "config": {"name": "batch_normalization_291", "trainable": true, "dtype": "float32", "axis": [3], "momentum": 0.99, "epsilon": 0.001, "center": true, "scale": false, "beta_initializer": {"class_name": "Zeros", "config": {}}, "gamma_initializer": {"class_name": "Ones", "config": {}}, "moving_mean_initializer": {"class_name": "Zeros", "config": {}}, "moving_variance_initializer": {"class_name": "Ones", "config": {}}, "beta_regularizer": null, "gamma_regularizer": null, "beta_constraint": null, "gamma_constraint": null}, "name": "batch_normalization_291", "inbound_nodes": [[["conv2d_299", 0, 0, {}]]]}, {"class_name": "Conv2D", "config": {"name": "conv2d_300", "trainable": true, "dtype": "float32", "filters": 192, "kernel_size": [1, 1], "strides": [1, 1], "padding": "same", "data_format": "channels_last", "dilation_rate": [1, 1], "groups": 1, "activation": "linear", "use_bias": false, "kernel_initializer": {"class_name": "GlorotUniform", "config": {"seed": null}}, "bias_initializer": {"class_name": "Zeros", "config": {}}, "kernel_regularizer": null, "bias_regularizer": null, "activity_regularizer": null, "kernel_constraint": null, "bias_constraint": null}, "name": "conv2d_300", "inbound_nodes": [[["average_pooling2d_8", 0, 0, {}]]]}, {"class_name": "BatchNormalization", "config": {"name": "batch_normalization_284", "trainable": true, "dtype": "float32", "axis": [3], "momentum": 0.99, "epsilon": 0.001, "center": true, "scale": false, "beta_initializer": {"class_name": "Zeros", "config": {}}, "gamma_initializer": {"class_name": "Ones", "config": {}}, "moving_mean_initializer": {"class_name": "Zeros", "config": {}}, "moving_variance_initializer": {"class_name": "Ones", "config": {}}, "beta_regularizer": null, "gamma_regularizer": null, "beta_constraint": null, "gamma_constraint": null}, "name": "batch_normalization_284", "inbound_nodes": [[["conv2d_292", 0, 0, {}]]]}, {"class_name": "Activation", "config": {"name": "activation_281", "trainable": true, "dtype": "float32", "activation": "relu"}, "name": "activation_281", "inbound_nodes": [[["batch_normalization_286", 0, 0, {}]]]}, {"class_name": "Activation", "config": {"name": "activation_282", "trainable": true, "dtype": "float32", "activation": "relu"}, "name": "activation_282", "inbound_nodes": [[["batch_normalization_287", 0, 0, {}]]]}, {"class_name": "Activation", "config": {"name": "activation_285", "trainable": true, "dtype": "float32", "activation": "relu"}, "name": "activation_285", "inbound_nodes": [[["batch_normalization_290", 0, 0, {}]]]}, {"class_name": "Activation", "config": {"name": "activation_286", "trainable": true, "dtype": "float32", "activation": "relu"}, "name": "activation_286", "inbound_nodes": [[["batch_normalization_291", 0, 0, {}]]]}, {"class_name": "BatchNormalization", "config": {"name": "batch_normalization_292", "trainable": true, "dtype": "float32", "axis": [3], "momentum": 0.99, "epsilon": 0.001, "center": true, "scale": false, "beta_initializer": {"class_name": "Zeros", "config": {}}, "gamma_initializer": {"class_name": "Ones", "config": {}}, "moving_mean_initializer": {"class_name": "Zeros", "config": {}}, "moving_variance_initializer": {"class_name": "Ones", "config": {}}, "beta_regularizer": null, "gamma_regularizer": null, "beta_constraint": null, "gamma_constraint": null}, "name": "batch_normalization_292", "inbound_nodes": [[["conv2d_300", 0, 0, {}]]]}, {"class_name": "Activation", "config": {"name": "activation_279", "trainable": true, "dtype": "float32", "activation": "relu"}, "name": "activation_279", "inbound_nodes": [[["batch_normalization_284", 0, 0, {}]]]}, {"class_name": "Concatenate", "config": {"name": "mixed9_0", "trainable": true, "dtype": "float32", "axis": 3}, "name": "mixed9_0", "inbound_nodes": [[["activation_281", 0, 0, {}], ["activation_282", 0, 0, {}]]]}, {"class_name": "Concatenate", "config": {"name": "concatenate", "trainable": true, "dtype": "float32", "axis": 3}, "name": "concatenate", "inbound_nodes": [[["activation_285", 0, 0, {}], ["activation_286", 0, 0, {}]]]}, {"class_name": "Activation", "config": {"name": "activation_287", "trainable": true, "dtype": "float32", "activation": "relu"}, "name": "activation_287", "inbound_nodes": [[["batch_normalization_292", 0, 0, {}]]]}, {"class_name": "Concatenate", "config": {"name": "mixed9", "trainable": true, "dtype": "float32", "axis": 3}, "name": "mixed9", "inbound_nodes": [[["activation_279", 0, 0, {}], ["mixed9_0", 0, 0, {}], ["concatenate", 0, 0, {}], ["activation_287", 0, 0, {}]]]}, {"class_name": "Conv2D", "config": {"name": "conv2d_305", "trainable": true, "dtype": "float32", "filters": 448, "kernel_size": [1, 1], "strides": [1, 1], "padding": "same", "data_format": "channels_last", "dilation_rate": [1, 1], "groups": 1, "activation": "linear", "use_bias": false, "kernel_initializer": {"class_name": "GlorotUniform", "config": {"seed": null}}, "bias_initializer": {"class_name": "Zeros", "config": {}}, "kernel_regularizer": null, "bias_regularizer": null, "activity_regularizer": null, "kernel_constraint": null, "bias_constraint": null}, "name": "conv2d_305", "inbound_nodes": [[["mixed9", 0, 0, {}]]]}, {"class_name": "BatchNormalization", "config": {"name": "batch_normalization_297", "trainable": true, "dtype": "float32", "axis": [3], "momentum": 0.99, "epsilon": 0.001, "center": true, "scale": false, "beta_initializer": {"class_name": "Zeros", "config": {}}, "gamma_initializer": {"class_name": "Ones", "config": {}}, "moving_mean_initializer": {"class_name": "Zeros", "config": {}}, "moving_variance_initializer": {"class_name": "Ones", "config": {}}, "beta_regularizer": null, "gamma_regularizer": null, "beta_constraint": null, "gamma_constraint": null}, "name": "batch_normalization_297", "inbound_nodes": [[["conv2d_305", 0, 0, {}]]]}, {"class_name": "Activation", "config": {"name": "activation_292", "trainable": true, "dtype": "float32", "activation": "relu"}, "name": "activation_292", "inbound_nodes": [[["batch_normalization_297", 0, 0, {}]]]}, {"class_name": "Conv2D", "config": {"name": "conv2d_302", "trainable": true, "dtype": "float32", "filters": 384, "kernel_size": [1, 1], "strides": [1, 1], "padding": "same", "data_format": "channels_last", "dilation_rate": [1, 1], "groups": 1, "activation": "linear", "use_bias": false, "kernel_initializer": {"class_name": "GlorotUniform", "config": {"seed": null}}, "bias_initializer": {"class_name": "Zeros", "config": {}}, "kernel_regularizer": null, "bias_regularizer": null, "activity_regularizer": null, "kernel_constraint": null, "bias_constraint": null}, "name": "conv2d_302", "inbound_nodes": [[["mixed9", 0, 0, {}]]]}, {"class_name": "Conv2D", "config": {"name": "conv2d_306", "trainable": true, "dtype": "float32", "filters": 384, "kernel_size": [3, 3], "strides": [1, 1], "padding": "same", "data_format": "channels_last", "dilation_rate": [1, 1], "groups": 1, "activation": "linear", "use_bias": false, "kernel_initializer": {"class_name": "GlorotUniform", "config": {"seed": null}}, "bias_initializer": {"class_name": "Zeros", "config": {}}, "kernel_regularizer": null, "bias_regularizer": null, "activity_regularizer": null, "kernel_constraint": null, "bias_constraint": null}, "name": "conv2d_306", "inbound_nodes": [[["activation_292", 0, 0, {}]]]}, {"class_name": "BatchNormalization", "config": {"name": "batch_normalization_294", "trainable": true, "dtype": "float32", "axis": [3], "momentum": 0.99, "epsilon": 0.001, "center": true, "scale": false, "beta_initializer": {"class_name": "Zeros", "config": {}}, "gamma_initializer": {"class_name": "Ones", "config": {}}, "moving_mean_initializer": {"class_name": "Zeros", "config": {}}, "moving_variance_initializer": {"class_name": "Ones", "config": {}}, "beta_regularizer": null, "gamma_regularizer": null, "beta_constraint": null, "gamma_constraint": null}, "name": "batch_normalization_294", "inbound_nodes": [[["conv2d_302", 0, 0, {}]]]}, {"class_name": "BatchNormalization", "config": {"name": "batch_normalization_298", "trainable": true, "dtype": "float32", "axis": [3], "momentum": 0.99, "epsilon": 0.001, "center": true, "scale": false, "beta_initializer": {"class_name": "Zeros", "config": {}}, "gamma_initializer": {"class_name": "Ones", "config": {}}, "moving_mean_initializer": {"class_name": "Zeros", "config": {}}, "moving_variance_initializer": {"class_name": "Ones", "config": {}}, "beta_regularizer": null, "gamma_regularizer": null, "beta_constraint": null, "gamma_constraint": null}, "name": "batch_normalization_298", "inbound_nodes": [[["conv2d_306", 0, 0, {}]]]}, {"class_name": "Activation", "config": {"name": "activation_289", "trainable": true, "dtype": "float32", "activation": "relu"}, "name": "activation_289", "inbound_nodes": [[["batch_normalization_294", 0, 0, {}]]]}, {"class_name": "Activation", "config": {"name": "activation_293", "trainable": true, "dtype": "float32", "activation": "relu"}, "name": "activation_293", "inbound_nodes": [[["batch_normalization_298", 0, 0, {}]]]}, {"class_name": "Conv2D", "config": {"name": "conv2d_303", "trainable": true, "dtype": "float32", "filters": 384, "kernel_size": [1, 3], "strides": [1, 1], "padding": "same", "data_format": "channels_last", "dilation_rate": [1, 1], "groups": 1, "activation": "linear", "use_bias": false, "kernel_initializer": {"class_name": "GlorotUniform", "config": {"seed": null}}, "bias_initializer": {"class_name": "Zeros", "config": {}}, "kernel_regularizer": null, "bias_regularizer": null, "activity_regularizer": null, "kernel_constraint": null, "bias_constraint": null}, "name": "conv2d_303", "inbound_nodes": [[["activation_289", 0, 0, {}]]]}, {"class_name": "Conv2D", "config": {"name": "conv2d_304", "trainable": true, "dtype": "float32", "filters": 384, "kernel_size": [3, 1], "strides": [1, 1], "padding": "same", "data_format": "channels_last", "dilation_rate": [1, 1], "groups": 1, "activation": "linear", "use_bias": false, "kernel_initializer": {"class_name": "GlorotUniform", "config": {"seed": null}}, "bias_initializer": {"class_name": "Zeros", "config": {}}, "kernel_regularizer": null, "bias_regularizer": null, "activity_regularizer": null, "kernel_constraint": null, "bias_constraint": null}, "name": "conv2d_304", "inbound_nodes": [[["activation_289", 0, 0, {}]]]}, {"class_name": "Conv2D", "config": {"name": "conv2d_307", "trainable": true, "dtype": "float32", "filters": 384, "kernel_size": [1, 3], "strides": [1, 1], "padding": "same", "data_format": "channels_last", "dilation_rate": [1, 1], "groups": 1, "activation": "linear", "use_bias": false, "kernel_initializer": {"class_name": "GlorotUniform", "config": {"seed": null}}, "bias_initializer": {"class_name": "Zeros", "config": {}}, "kernel_regularizer": null, "bias_regularizer": null, "activity_regularizer": null, "kernel_constraint": null, "bias_constraint": null}, "name": "conv2d_307", "inbound_nodes": [[["activation_293", 0, 0, {}]]]}, {"class_name": "Conv2D", "config": {"name": "conv2d_308", "trainable": true, "dtype": "float32", "filters": 384, "kernel_size": [3, 1], "strides": [1, 1], "padding": "same", "data_format": "channels_last", "dilation_rate": [1, 1], "groups": 1, "activation": "linear", "use_bias": false, "kernel_initializer": {"class_name": "GlorotUniform", "config": {"seed": null}}, "bias_initializer": {"class_name": "Zeros", "config": {}}, "kernel_regularizer": null, "bias_regularizer": null, "activity_regularizer": null, "kernel_constraint": null, "bias_constraint": null}, "name": "conv2d_308", "inbound_nodes": [[["activation_293", 0, 0, {}]]]}, {"class_name": "AveragePooling2D", "config": {"name": "average_pooling2d_9", "trainable": true, "dtype": "float32", "pool_size": [3, 3], "padding": "same", "strides": [1, 1], "data_format": "channels_last"}, "name": "average_pooling2d_9", "inbound_nodes": [[["mixed9", 0, 0, {}]]]}, {"class_name": "Conv2D", "config": {"name": "conv2d_301", "trainable": true, "dtype": "float32", "filters": 320, "kernel_size": [1, 1], "strides": [1, 1], "padding": "same", "data_format": "channels_last", "dilation_rate": [1, 1], "groups": 1, "activation": "linear", "use_bias": false, "kernel_initializer": {"class_name": "GlorotUniform", "config": {"seed": null}}, "bias_initializer": {"class_name": "Zeros", "config": {}}, "kernel_regularizer": null, "bias_regularizer": null, "activity_regularizer": null, "kernel_constraint": null, "bias_constraint": null}, "name": "conv2d_301", "inbound_nodes": [[["mixed9", 0, 0, {}]]]}, {"class_name": "BatchNormalization", "config": {"name": "batch_normalization_295", "trainable": true, "dtype": "float32", "axis": [3], "momentum": 0.99, "epsilon": 0.001, "center": true, "scale": false, "beta_initializer": {"class_name": "Zeros", "config": {}}, "gamma_initializer": {"class_name": "Ones", "config": {}}, "moving_mean_initializer": {"class_name": "Zeros", "config": {}}, "moving_variance_initializer": {"class_name": "Ones", "config": {}}, "beta_regularizer": null, "gamma_regularizer": null, "beta_constraint": null, "gamma_constraint": null}, "name": "batch_normalization_295", "inbound_nodes": [[["conv2d_303", 0, 0, {}]]]}, {"class_name": "BatchNormalization", "config": {"name": "batch_normalization_296", "trainable": true, "dtype": "float32", "axis": [3], "momentum": 0.99, "epsilon": 0.001, "center": true, "scale": false, "beta_initializer": {"class_name": "Zeros", "config": {}}, "gamma_initializer": {"class_name": "Ones", "config": {}}, "moving_mean_initializer": {"class_name": "Zeros", "config": {}}, "moving_variance_initializer": {"class_name": "Ones", "config": {}}, "beta_regularizer": null, "gamma_regularizer": null, "beta_constraint": null, "gamma_constraint": null}, "name": "batch_normalization_296", "inbound_nodes": [[["conv2d_304", 0, 0, {}]]]}, {"class_name": "BatchNormalization", "config": {"name": "batch_normalization_299", "trainable": true, "dtype": "float32", "axis": [3], "momentum": 0.99, "epsilon": 0.001, "center": true, "scale": false, "beta_initializer": {"class_name": "Zeros", "config": {}}, "gamma_initializer": {"class_name": "Ones", "config": {}}, "moving_mean_initializer": {"class_name": "Zeros", "config": {}}, "moving_variance_initializer": {"class_name": "Ones", "config": {}}, "beta_regularizer": null, "gamma_regularizer": null, "beta_constraint": null, "gamma_constraint": null}, "name": "batch_normalization_299", "inbound_nodes": [[["conv2d_307", 0, 0, {}]]]}, {"class_name": "BatchNormalization", "config": {"name": "batch_normalization_300", "trainable": true, "dtype": "float32", "axis": [3], "momentum": 0.99, "epsilon": 0.001, "center": true, "scale": false, "beta_initializer": {"class_name": "Zeros", "config": {}}, "gamma_initializer": {"class_name": "Ones", "config": {}}, "moving_mean_initializer": {"class_name": "Zeros", "config": {}}, "moving_variance_initializer": {"class_name": "Ones", "config": {}}, "beta_regularizer": null, "gamma_regularizer": null, "beta_constraint": null, "gamma_constraint": null}, "name": "batch_normalization_300", "inbound_nodes": [[["conv2d_308", 0, 0, {}]]]}, {"class_name": "Conv2D", "config": {"name": "conv2d_309", "trainable": true, "dtype": "float32", "filters": 192, "kernel_size": [1, 1], "strides": [1, 1], "padding": "same", "data_format": "channels_last", "dilation_rate": [1, 1], "groups": 1, "activation": "linear", "use_bias": false, "kernel_initializer": {"class_name": "GlorotUniform", "config": {"seed": null}}, "bias_initializer": {"class_name": "Zeros", "config": {}}, "kernel_regularizer": null, "bias_regularizer": null, "activity_regularizer": null, "kernel_constraint": null, "bias_constraint": null}, "name": "conv2d_309", "inbound_nodes": [[["average_pooling2d_9", 0, 0, {}]]]}, {"class_name": "BatchNormalization", "config": {"name": "batch_normalization_293", "trainable": true, "dtype": "float32", "axis": [3], "momentum": 0.99, "epsilon": 0.001, "center": true, "scale": false, "beta_initializer": {"class_name": "Zeros", "config": {}}, "gamma_initializer": {"class_name": "Ones", "config": {}}, "moving_mean_initializer": {"class_name": "Zeros", "config": {}}, "moving_variance_initializer": {"class_name": "Ones", "config": {}}, "beta_regularizer": null, "gamma_regularizer": null, "beta_constraint": null, "gamma_constraint": null}, "name": "batch_normalization_293", "inbound_nodes": [[["conv2d_301", 0, 0, {}]]]}, {"class_name": "Activation", "config": {"name": "activation_290", "trainable": true, "dtype": "float32", "activation": "relu"}, "name": "activation_290", "inbound_nodes": [[["batch_normalization_295", 0, 0, {}]]]}, {"class_name": "Activation", "config": {"name": "activation_291", "trainable": true, "dtype": "float32", "activation": "relu"}, "name": "activation_291", "inbound_nodes": [[["batch_normalization_296", 0, 0, {}]]]}, {"class_name": "Activation", "config": {"name": "activation_294", "trainable": true, "dtype": "float32", "activation": "relu"}, "name": "activation_294", "inbound_nodes": [[["batch_normalization_299", 0, 0, {}]]]}, {"class_name": "Activation", "config": {"name": "activation_295", "trainable": true, "dtype": "float32", "activation": "relu"}, "name": "activation_295", "inbound_nodes": [[["batch_normalization_300", 0, 0, {}]]]}, {"class_name": "BatchNormalization", "config": {"name": "batch_normalization_301", "trainable": true, "dtype": "float32", "axis": [3], "momentum": 0.99, "epsilon": 0.001, "center": true, "scale": false, "beta_initializer": {"class_name": "Zeros", "config": {}}, "gamma_initializer": {"class_name": "Ones", "config": {}}, "moving_mean_initializer": {"class_name": "Zeros", "config": {}}, "moving_variance_initializer": {"class_name": "Ones", "config": {}}, "beta_regularizer": null, "gamma_regularizer": null, "beta_constraint": null, "gamma_constraint": null}, "name": "batch_normalization_301", "inbound_nodes": [[["conv2d_309", 0, 0, {}]]]}, {"class_name": "Activation", "config": {"name": "activation_288", "trainable": true, "dtype": "float32", "activation": "relu"}, "name": "activation_288", "inbound_nodes": [[["batch_normalization_293", 0, 0, {}]]]}, {"class_name": "Concatenate", "config": {"name": "mixed9_1", "trainable": true, "dtype": "float32", "axis": 3}, "name": "mixed9_1", "inbound_nodes": [[["activation_290", 0, 0, {}], ["activation_291", 0, 0, {}]]]}, {"class_name": "Concatenate", "config": {"name": "concatenate_1", "trainable": true, "dtype": "float32", "axis": 3}, "name": "concatenate_1", "inbound_nodes": [[["activation_294", 0, 0, {}], ["activation_295", 0, 0, {}]]]}, {"class_name": "Activation", "config": {"name": "activation_296", "trainable": true, "dtype": "float32", "activation": "relu"}, "name": "activation_296", "inbound_nodes": [[["batch_normalization_301", 0, 0, {}]]]}, {"class_name": "Concatenate", "config": {"name": "mixed10", "trainable": true, "dtype": "float32", "axis": 3}, "name": "mixed10", "inbound_nodes": [[["activation_288", 0, 0, {}], ["mixed9_1", 0, 0, {}], ["concatenate_1", 0, 0, {}], ["activation_296", 0, 0, {}]]]}, {"class_name": "GlobalAveragePooling2D", "config": {"name": "avg_pool", "trainable": true, "dtype": "float32", "data_format": "channels_last"}, "name": "avg_pool", "inbound_nodes": [[["mixed10", 0, 0, {}]]]}, {"class_name": "Dense", "config": {"name": "predictions", "trainable": true, "dtype": "float32", "units": 1000, "activation": "softmax", "use_bias": true, "kernel_initializer": {"class_name": "GlorotUniform", "config": {"seed": null}}, "bias_initializer": {"class_name": "Zeros", "config": {}}, "kernel_regularizer": null, "bias_regularizer": null, "activity_regularizer": null, "kernel_constraint": null, "bias_constraint": null}, "name": "predictions", "inbound_nodes": [[["avg_pool", 0, 0, {}]]]}, {"class_name": "Dense", "config": {"name": "dense_2", "trainable": true, "dtype": "float32", "units": 3, "activation": "softmax", "use_bias": true, "kernel_initializer": {"class_name": "GlorotUniform", "config": {"seed": null}}, "bias_initializer": {"class_name": "Zeros", "config": {}}, "kernel_regularizer": null, "bias_regularizer": null, "activity_regularizer": null, "kernel_constraint": null, "bias_constraint": null}, "name": "dense_2", "inbound_nodes": [[["predictions", 0, 0, {}]]]}], "input_layers": [["input_2", 0, 0]], "output_layers": [["dense_2", 0, 0]]}}, "training_config": {"loss": "categorical_crossentropy", "metrics": ["accuracy", {"class_name": "AUC", "config": {"name": "auc", "dtype": "float32", "num_thresholds": 200, "curve": "ROC", "summation_method": "interpolation", "thresholds": [… "multi_label": false, "label_weights": null}}], "weighted_metrics": null, "loss_weights": null, "optimizer_config": {"class_name": "Adam", "config": {"name": "Adam", "learning_rate": 9.999999747378752e-06, "decay": 0.0, "beta_1": 0.8999999761581421, "beta_2": 0.9998999834060669, "epsilon": 1e-08, "amsgrad": true}}}}, "weightsManifest": [{"paths": ["group1-shard1of23.bin", "group1-shard2of23.bin", "group1-shard3of23.bin", "group1-shard4of23.bin", "group1-shard5of23.bin", "group1-shard6of23.bin", "group1-shard7of23.bin", "group1-shard8of23.bin", "group1-shard9of23.bin", "group1-shard10of23.bin", "group1-shard11of23.bin", "group1-shard12of23.bin", "group1-shard13of23.bin", "group1-shard14of23.bin", "group1-shard15of23.bin", "group1-shard16of23.bin", "group1-shard17of23.bin", "group1-shard18of23.bin", "group1-shard19of23.bin", "group1-shard20of23.bin", "group1-shard21of23.bin", "group1-shard22of23.bin", "group1-shard23of23.bin"], "weights": [{"name": "batch_normalization_208/beta", "shape": [32], "dtype": "float32"}, {"name": "batch_normalization_208/moving_mean", "shape": [32], "dtype": "float32"}, {"name": "batch_normalization_208/moving_variance", "shape": [32], "dtype": "float32"}, {"name": "batch_normalization_209/beta", "shape": [32], "dtype": "float32"}, {"name": "batch_normalization_209/moving_mean", "shape": [32], "dtype": "float32"}, {"name": "batch_normalization_209/moving_variance", "shape": [32], "dtype": "float32"}, {"name": "batch_normalization_210/beta", "shape": [64], "dtype": "float32"}, {"name": "batch_normalization_210/moving_mean", "shape": [64], "dtype": "float32"}, {"name": "batch_normalization_210/moving_variance", "shape": [64], "dtype": "float32"}, {"name": "batch_normalization_211/beta", "shape": [80], "dtype": "float32"}, {"name": "batch_normalization_211/moving_mean", "shape": [80], "dtype": "float32"}, {"name": "batch_normalization_211/moving_variance", "shape": [80], "dtype": "float32"}, {"name": "batch_normalization_212/beta", "shape": [192], "dtype": "float32"}, {"name": "batch_normalization_212/moving_mean", "shape": [192], "dtype": "float32"}, {"name": "batch_normalization_212/moving_variance", "shape": [192], "dtype": "float32"}, {"name": "batch_normalization_213/beta", "shape": [64], "dtype": "float32"}, {"name": "batch_normalization_213/moving_mean", "shape": [64], "dtype": "float32"}, {"name": "batch_normalization_213/moving_variance", "shape": [64], "dtype": "float32"}, {"name": "batch_normalization_214/beta", "shape": [48], "dtype": "float32"}, {"name": "batch_normalization_214/moving_mean", "shape": [48], "dtype": "float32"}, {"name": "batch_normalization_214/moving_variance", "shape": [48], "dtype": "float32"}, {"name": "batch_normalization_215/beta", "shape": [64], "dtype": "float32"}, {"name": "batch_normalization_215/moving_mean", "shape": [64], "dtype": "float32"}, {"name": "batch_normalization_215/moving_variance", "shape": [64], "dtype": "float32"}, {"name": "batch_normalization_216/beta", "shape": [64], "dtype": "float32"}, {"name": "batch_normalization_216/moving_mean", "shape": [64], "dtype": "float32"}, {"name": "batch_normalization_216/moving_variance", "shape": [64], "dtype": "float32"}, {"name": "batch_normalization_217/beta", "shape": [96], "dtype": "float32"}, {"name": "batch_normalization_217/moving_mean", "shape": [96], "dtype": "float32"}, {"name": "batch_normalization_217/moving_variance", "shape": [96], "dtype": "float32"}, {"name": "batch_normalization_218/beta", "shape": [96], "dtype": "float32"}, {"name": "batch_normalization_218/moving_mean", "shape": [96], "dtype": "float32"}, {"name": "batch_normalization_218/moving_variance", "shape": [96], "dtype": "float32"}, {"name": "batch_normalization_219/beta", "shape": [32], "dtype": "float32"}, {"name": "batch_normalization_219/moving_mean", "shape": [32], "dtype": "float32"}, {"name": "batch_normalization_219/moving_variance", "shape": [32], "dtype": "float32"}, {"name": "batch_normalization_220/beta", "shape": [64], "dtype": "float32"}, {"name": "batch_normalization_220/moving_mean", "shape": [64], "dtype": "float32"}, {"name": "batch_normalization_220/moving_variance", "shape": [64], "dtype": "float32"}, {"name": "batch_normalization_221/beta", "shape": [48], "dtype": "float32"}, {"name": "batch_normalization_221/moving_mean", "shape": [48], "dtype": "float32"}, {"name": "batch_normalization_221/moving_variance", "shape": [48], "dtype": "float32"}, {"name": "batch_normalization_222/beta", "shape": [64], "dtype": "float32"}, {"name": "batch_normalization_222/moving_mean", "shape": [64], "dtype": "float32"}, {"name": "batch_normalization_222/moving_variance", "shape": [64], "dtype": "float32"}, {"name": "batch_normalization_223/beta", "shape": [64], "dtype": "float32"}, {"name": "batch_normalization_223/moving_mean", "shape": [64], "dtype": "float32"}, {"name": "batch_normalization_223/moving_variance", "shape": [64], "dtype": "float32"}, {"name": "batch_normalization_224/beta", "shape": [96], "dtype": "float32"}, {"name": "batch_normalization_224/moving_mean", "shape": [96], "dtype": "float32"}, {"name": "batch_normalization_224/moving_variance", "shape": [96], "dtype": "float32"}, {"name": "batch_normalization_225/beta", "shape": [96], "dtype": "float32"}, {"name": "batch_normalization_225/moving_mean", "shape": [96], "dtype": "float32"}, {"name": "batch_normalization_225/moving_variance", "shape": [96], "dtype": "float32"}, {"name": "batch_normalization_226/beta", "shape": [64], "dtype": "float32"}, {"name": "batch_normalization_226/moving_mean", "shape": [64], "dtype": "float32"}, {"name": "batch_normalization_226/moving_variance", "shape": [64], "dtype": "float32"}, {"name": "batch_normalization_227/beta", "shape": [64], "dtype": "float32"}, {"name": "batch_normalization_227/moving_mean", "shape": [64], "dtype": "float32"}, {"name": "batch_normalization_227/moving_variance", "shape": [64], "dtype": "float32"}, {"name": "batch_normalization_228/beta", "shape": [48], "dtype": "float32"}, {"name": "batch_normalization_228/moving_mean", "shape": [48], "dtype": "float32"}, {"name": "batch_normalization_228/moving_variance", "shape": [48], "dtype": "float32"}, {"name": "batch_normalization_229/beta", "shape": [64], "dtype": "float32"}, {"name": "batch_normalization_229/moving_mean", "shape": [64], "dtype": "float32"}, {"name": "batch_normalization_229/moving_variance", "shape": [64], "dtype": "float32"}, {"name": "batch_normalization_230/beta", "shape": [64], "dtype": "float32"}, {"name": "batch_normalization_230/moving_mean", "shape": [64], "dtype": "float32"}, {"name": "batch_normalization_230/moving_variance", "shape": [64], "dtype": "float32"}, {"name": "batch_normalization_231/beta", "shape": [96], "dtype": "float32"}, {"name": "batch_normalization_231/moving_mean", "shape": [96], "dtype": "float32"}, {"name": "batch_normalization_231/moving_variance", "shape": [96], "dtype": "float32"}, {"name": "batch_normalization_232/beta", "shape": [96], "dtype": "float32"}, {"name": "batch_normalization_232/moving_mean", "shape": [96], "dtype": "float32"}, {"name": "batch_normalization_232/moving_variance", "shape": [96], "dtype": "float32"}, {"name": "batch_normalization_233/beta", "shape": [64], "dtype": "float32"}, {"name": "batch_normalization_233/moving_mean", "shape": [64], "dtype": "float32"}, {"name": "batch_normalization_233/moving_variance", "shape": [64], "dtype": "float32"}, {"name": "batch_normalization_234/beta", "shape": [384], "dtype": "float32"}, {"name": "batch_normalization_234/moving_mean", "shape": [384], "dtype": "float32"}, {"name": "batch_normalization_234/moving_variance", "shape": [384], "dtype": "float32"}, {"name": "batch_normalization_235/beta", "shape": [64], "dtype": "float32"}, {"name": "batch_normalization_235/moving_mean", "shape": [64], "dtype": "float32"}, {"name": "batch_normalization_235/moving_variance", "shape": [64], "dtype": "float32"}, {"name": "batch_normalization_236/beta", "shape": [96], "dtype": "float32"}, {"name": "batch_normalization_236/moving_mean", "shape": [96], "dtype": "float32"}, {"name": "batch_normalization_236/moving_variance", "shape": [96], "dtype": "float32"}, {"name": "batch_normalization_237/beta", "shape": [96], "dtype": "float32"}, {"name": "batch_normalization_237/moving_mean", "shape": [96], "dtype": "float32"}, {"name": "batch_normalization_237/moving_variance", "shape": [96], "dtype": "float32"}, {"name": "batch_normalization_238/beta", "shape": [192], "dtype": "float32"}, {"name": "batch_normalization_238/moving_mean", "shape": [192], "dtype": "float32"}, {"name": "batch_normalization_238/moving_variance", "shape": [192], "dtype": "float32"}, {"name": "batch_normalization_239/beta", "shape": [128], "dtype": "float32"}, {"name": "batch_normalization_239/moving_mean", "shape": [128], "dtype": "float32"}, {"name": "batch_normalization_239/moving_variance", "shape": [128], "dtype": "float32"}, {"name": "batch_normalization_240/beta", "shape": [128], "dtype": "float32"}, {"name": "batch_normalization_240/moving_mean", "shape": [128], "dtype": "float32"}, {"name": "batch_normalization_240/moving_variance", "shape": [128], "dtype": "float32"}, {"name": "batch_normalization_241/beta", "shape": [192], "dtype": "float32"}, {"name": "batch_normalization_241/moving_mean", "shape": [192], "dtype": "float32"}, {"name": "batch_normalization_241/moving_variance", "shape": [192], "dtype": "float32"}, {"name": "batch_normalization_242/beta", "shape": [128], "dtype": "float32"}, {"name": "batch_normalization_242/moving_mean", "shape": [128], "dtype": "float32"}, {"name": "batch_normalization_242/moving_variance", "shape": [128], "dtype": "float32"}, {"name": "batch_normalization_243/beta", "shape": [128], "dtype": "float32"}, {"name": "batch_normalization_243/moving_mean", "shape": [128], "dtype": "float32"}, {"name": "batch_normalization_243/moving_variance", "shape": [128], "dtype": "float32"}, {"name": "batch_normalization_244/beta", "shape": [128], "dtype": "float32"}, {"name": "batch_normalization_244/moving_mean", "shape": [128], "dtype": "float32"}, {"name": "batch_normalization_244/moving_variance", "shape": [128], "dtype": "float32"}, {"name": "batch_normalization_245/beta", "shape": [128], "dtype": "float32"}, {"name": "batch_normalization_245/moving_mean", "shape": [128], "dtype": "float32"}, {"name": "batch_normalization_245/moving_variance", "shape": [128], "dtype": "float32"}, {"name": "batch_normalization_246/beta", "shape": [192], "dtype": "float32"}, {"name": "batch_normalization_246/moving_mean", "shape": [192], "dtype": "float32"}, {"name": "batch_normalization_246/moving_variance", "shape": [192], "dtype": "float32"}, {"name": "batch_normalization_247/beta", "shape": [192], "dtype": "float32"}, {"name": "batch_normalization_247/moving_mean", "shape": [192], "dtype": "float32"}, {"name": "batch_normalization_247/moving_variance", "shape": [192], "dtype": "float32"}, {"name": "batch_normalization_248/beta", "shape": [192], "dtype": "float32"}, {"name": "batch_normalization_248/moving_mean", "shape": [192], "dtype": "float32"}, {"name": "batch_normalization_248/moving_variance", "shape": [192], "dtype": "float32"}, {"name": "batch_normalization_249/beta", "shape": [160], "dtype": "float32"}, {"name": "batch_normalization_249/moving_mean", "shape": [160], "dtype": "float32"}, {"name": "batch_normalization_249/moving_variance", "shape": [160], "dtype": "float32"}, {"name": "batch_normalization_250/beta", "shape": [160], "dtype": "float32"}, {"name": "batch_normalization_250/moving_mean", "shape": [160], "dtype": "float32"}, {"name": "batch_normalization_250/moving_variance", "shape": [160], "dtype": "float32"}, {"name": "batch_normalization_251/beta", "shape": [192], "dtype": "float32"}, {"name": "batch_normalization_251/moving_mean", "shape": [192], "dtype": "float32"}, {"name": "batch_normalization_251/moving_variance", "shape": [192], "dtype": "float32"}, {"name": "batch_normalization_252/beta", "shape": [160], "dtype": "float32"}, {"name": "batch_normalization_252/moving_mean", "shape": [160], "dtype": "float32"}, {"name": "batch_normalization_252/moving_variance", "shape": [160], "dtype": "float32"}, {"name": "batch_normalization_253/beta", "shape": [160], "dtype": "float32"}, {"name": "batch_normalization_253/moving_mean", "shape": [160], "dtype": "float32"}, {"name": "batch_normalization_253/moving_variance", "shape": [160], "dtype": "float32"}, {"name": "batch_normalization_254/beta", "shape": [160], "dtype": "float32"}, {"name": "batch_normalization_254/moving_mean", "shape": [160], "dtype": "float32"}, {"name": "batch_normalization_254/moving_variance", "shape": [160], "dtype": "float32"}, {"name": "batch_normalization_255/beta", "shape": [160], "dtype": "float32"}, {"name": "batch_normalization_255/moving_mean", "shape": [160], "dtype": "float32"}, {"name": "batch_normalization_255/moving_variance", "shape": [160], "dtype": "float32"}, {"name": "batch_normalization_256/beta", "shape": [192], "dtype": "float32"}, {"name": "batch_normalization_256/moving_mean", "shape": [192], "dtype": "float32"}, {"name": "batch_normalization_256/moving_variance", "shape": [192], "dtype": "float32"}, {"name": "batch_normalization_257/beta", "shape": [192], "dtype": "float32"}, {"name": "batch_normalization_257/moving_mean", "shape": [192], "dtype": "float32"}, {"name": "batch_normalization_257/moving_variance", "shape": [192], "dtype": "float32"}, {"name": "batch_normalization_258/beta", "shape": [192], "dtype": "float32"}, {"name": "batch_normalization_258/moving_mean", "shape": [192], "dtype": "float32"}, {"name": "batch_normalization_258/moving_variance", "shape": [192], "dtype": "float32"}, {"name": "batch_normalization_259/beta", "shape": [160], "dtype": "float32"}, {"name": "batch_normalization_259/moving_mean", "shape": [160], "dtype": "float32"}, {"name": "batch_normalization_259/moving_variance", "shape": [160], "dtype": "float32"}, {"name": "batch_normalization_260/beta", "shape": [160], "dtype": "float32"}, {"name": "batch_normalization_260/moving_mean", "shape": [160], "dtype": "float32"}, {"name": "batch_normalization_260/moving_variance", "shape": [160], "dtype": "float32"}, {"name": "batch_normalization_261/beta", "shape": [192], "dtype": "float32"}, {"name": "batch_normalization_261/moving_mean", "shape": [192], "dtype": "float32"}, {"name": "batch_normalization_261/moving_variance", "shape": [192], "dtype": "float32"}, {"name": "batch_normalization_262/beta", "shape": [160], "dtype": "float32"}, {"name": "batch_normalization_262/moving_mean", "shape": [160], "dtype": "float32"}, {"name": "batch_normalization_262/moving_variance", "shape": [160], "dtype": "float32"}, {"name": "batch_normalization_263/beta", "shape": [160], "dtype": "float32"}, {"name": "batch_normalization_263/moving_mean", "shape": [160], "dtype": "float32"}, {"name": "batch_normalization_263/moving_variance", "shape": [160], "dtype": "float32"}, {"name": "batch_normalization_264/beta", "shape": [160], "dtype": "float32"}, {"name": "batch_normalization_264/moving_mean", "shape": [160], "dtype": "float32"}, {"name": "batch_normalization_264/moving_variance", "shape": [160], "dtype": "float32"}, {"name": "batch_normalization_265/beta", "shape": [160], "dtype": "float32"}, {"name": "batch_normalization_265/moving_mean", "shape": [160], "dtype": "float32"}, {"name": "batch_normalization_265/moving_variance", "shape": [160], "dtype": "float32"}, {"name": "batch_normalization_266/beta", "shape": [192], "dtype": "float32"}, {"name": "batch_normalization_266/moving_mean", "shape": [192], "dtype": "float32"}, {"name": "batch_normalization_266/moving_variance", "shape": [192], "dtype": "float32"}, {"name": "batch_normalization_267/beta", "shape": [192], "dtype": "float32"}, {"name": "batch_normalization_267/moving_mean", "shape": [192], "dtype": "float32"}, {"name": "batch_normalization_267/moving_variance", "shape": [192], "dtype": "float32"}, {"name": "batch_normalization_268/beta", "shape": [192], "dtype": "float32"}, {"name": "batch_normalization_268/moving_mean", "shape": [192], "dtype": "float32"}, {"name": "batch_normalization_268/moving_variance", "shape": [192], "dtype": "float32"}, {"name": "batch_normalization_269/beta", "shape": [192], "dtype": "float32"}, {"name": "batch_normalization_269/moving_mean", "shape": [192], "dtype": "float32"}, {"name": "batch_normalization_269/moving_variance", "shape": [192], "dtype": "float32"}, {"name": "batch_normalization_270/beta", "shape": [192], "dtype": "float32"}, {"name": "batch_normalization_270/moving_mean", "shape": [192], "dtype": "float32"}, {"name": "batch_normalization_270/moving_variance", "shape": [192], "dtype": "float32"}, {"name": "batch_normalization_271/beta", "shape": [192], "dtype": "float32"}, {"name": "batch_normalization_271/moving_mean", "shape": [192], "dtype": "float32"}, {"name": "batch_normalization_271/moving_variance", "shape": [192], "dtype": "float32"}, {"name": "batch_normalization_272/beta", "shape": [192], "dtype": "float32"}, {"name": "batch_normalization_272/moving_mean", "shape": [192], "dtype": "float32"}, {"name": "batch_normalization_272/moving_variance", "shape": [192], "dtype": "float32"}, {"name": "batch_normalization_273/beta", "shape": [192], "dtype": "float32"}, {"name": "batch_normalization_273/moving_mean", "shape": [192], "dtype": "float32"}, {"name": "batch_normalization_273/moving_variance", "shape": [192], "dtype": "float32"}, {"name": "batch_normalization_274/beta", "shape": [192], "dtype": "float32"}, {"name": "batch_normalization_274/moving_mean", "shape": [192], "dtype": "float32"}, {"name": "batch_normalization_274/moving_variance", "shape": [192], "dtype": "float32"}, {"name": "batch_normalization_275/beta", "shape": [192], "dtype": "float32"}, {"name": "batch_normalization_275/moving_mean", "shape": [192], "dtype": "float32"}, {"name": "batch_normalization_275/moving_variance", "shape": [192], "dtype": "float32"}, {"name": "batch_normalization_276/beta", "shape": [192], "dtype": "float32"}, {"name": "batch_normalization_276/moving_mean", "shape": [192], "dtype": "float32"}, {"name": "batch_normalization_276/moving_variance", "shape": [192], "dtype": "float32"}, {"name": "batch_normalization_277/beta", "shape": [192], "dtype": "float32"}, {"name": "batch_normalization_277/moving_mean", "shape": [192], "dtype": "float32"}, {"name": "batch_normalization_277/moving_variance", "shape": [192], "dtype": "float32"}, {"name": "batch_normalization_278/beta", "shape": [192], "dtype": "float32"}, {"name": "batch_normalization_278/moving_mean", "shape": [192], "dtype": "float32"}, {"name": "batch_normalization_278/moving_variance", "shape": [192], "dtype": "float32"}, {"name": "batch_normalization_279/beta", "shape": [320], "dtype": "float32"}, {"name": "batch_normalization_279/moving_mean", "shape": [320], "dtype": "float32"}, {"name": "batch_normalization_279/moving_variance", "shape": [320], "dtype": "float32"}, {"name": "batch_normalization_280/beta", "shape": [192], "dtype": "float32"}, {"name": "batch_normalization_280/moving_mean", "shape": [192], "dtype": "float32"}, {"name": "batch_normalization_280/moving_variance", "shape": [192], "dtype": "float32"}, {"name": "batch_normalization_281/beta", "shape": [192], "dtype": "float32"}, {"name": "batch_normalization_281/moving_mean", "shape": [192], "dtype": "float32"}, {"name": "batch_normalization_281/moving_variance", "shape": [192], "dtype": "float32"}, {"name": "batch_normalization_282/beta", "shape": [192], "dtype": "float32"}, {"name": "batch_normalization_282/moving_mean", "shape": [192], "dtype": "float32"}, {"name": "batch_normalization_282/moving_variance", "shape": [192], "dtype": "float32"}, {"name": "batch_normalization_283/beta", "shape": [192], "dtype": "float32"}, {"name": "batch_normalization_283/moving_mean", "shape": [192], "dtype": "float32"}, {"name": "batch_normalization_283/moving_variance", "shape": [192], "dtype": "float32"}, {"name": "batch_normalization_284/beta", "shape": [320], "dtype": "float32"}, {"name": "batch_normalization_284/moving_mean", "shape": [320], "dtype": "float32"}, {"name": "batch_normalization_284/moving_variance", "shape": [320], "dtype": "float32"}, {"name": "batch_normalization_285/beta", "shape": [384], "dtype": "float32"}, {"name": "batch_normalization_285/moving_mean", "shape": [384], "dtype": "float32"}, {"name": "batch_normalization_285/moving_variance", "shape": [384], "dtype": "float32"}, {"name": "batch_normalization_286/beta", "shape": [384], "dtype": "float32"}, {"name": "batch_normalization_286/moving_mean", "shape": [384], "dtype": "float32"}, {"name": "batch_normalization_286/moving_variance", "shape": [384], "dtype": "float32"}, {"name": "batch_normalization_287/beta", "shape": [384], "dtype": "float32"}, {"name": "batch_normalization_287/moving_mean", "shape": [384], "dtype": "float32"}, {"name": "batch_normalization_287/moving_variance", "shape": [384], "dtype": "float32"}, {"name": "batch_normalization_288/beta", "shape": [448], "dtype": "float32"}, {"name": "batch_normalization_288/moving_mean", "shape": [448], "dtype": "float32"}, {"name": "batch_normalization_288/moving_variance", "shape": [448], "dtype": "float32"}, {"name": "batch_normalization_289/beta", "shape": [384], "dtype": "float32"}, {"name": "batch_normalization_289/moving_mean", "shape": [384], "dtype": "float32"}, {"name": "batch_normalization_289/moving_variance", "shape": [384], "dtype": "float32"}, {"name": "batch_normalization_290/beta", "shape": [384], "dtype": "float32"}, {"name": "batch_normalization_290/moving_mean", "shape": [384], "dtype": "float32"}, {"name": "batch_normalization_290/moving_variance", "shape": [384], "dtype": "float32"}, {"name": "batch_normalization_291/beta", "shape": [384], "dtype": "float32"}, {"name": "batch_normalization_291/moving_mean", "shape": [384], "dtype": "float32"}, {"name": "batch_normalization_291/moving_variance", "shape": [384], "dtype": "float32"}, {"name": "batch_normalization_292/beta", "shape": [192], "dtype": "float32"}, {"name": "batch_normalization_292/moving_mean", "shape": [192], "dtype": "float32"}, {"name": "batch_normalization_292/moving_variance", "shape": [192], "dtype": "float32"}, {"name": "batch_normalization_293/beta", "shape": [320], "dtype": "float32"}, {"name": "batch_normalization_293/moving_mean", "shape": [320], "dtype": "float32"}, {"name": "batch_normalization_293/moving_variance", "shape": [320], "dtype": "float32"}, {"name": "batch_normalization_294/beta", "shape": [384], "dtype": "float32"}, {"name": "batch_normalization_294/moving_mean", "shape": [384], "dtype": "float32"}, {"name": "batch_normalization_294/moving_variance", "shape": [384], "dtype": "float32"}, {"name": "batch_normalization_295/beta", "shape": [384], "dtype": "float32"}, {"name": "batch_normalization_295/moving_mean", "shape": [384], "dtype": "float32"}, {"name": "batch_normalization_295/moving_variance", "shape": [384], "dtype": "float32"}, {"name": "batch_normalization_296/beta", "shape": [384], "dtype": "float32"}, {"name": "batch_normalization_296/moving_mean", "shape": [384], "dtype": "float32"}, {"name": "batch_normalization_296/moving_variance", "shape": [384], "dtype": "float32"}, {"name": "batch_normalization_297/beta", "shape": [448], "dtype": "float32"}, {"name": "batch_normalization_297/moving_mean", "shape": [448], "dtype": "float32"}, {"name": "batch_normalization_297/moving_variance", "shape": [448], "dtype": "float32"}, {"name": "batch_normalization_298/beta", "shape": [384], "dtype": "float32"}, {"name": "batch_normalization_298/moving_mean", "shape": [384], "dtype": "float32"}, {"name": "batch_normalization_298/moving_variance", "shape": [384], "dtype": "float32"}, {"name": "batch_normalization_299/beta", "shape": [384], "dtype": "float32"}, {"name": "batch_normalization_299/moving_mean", "shape": [384], "dtype": "float32"}, {"name": "batch_normalization_299/moving_variance", "shape": [384], "dtype": "float32"}, {"name": "batch_normalization_300/beta", "shape": [384], "dtype": "float32"}, {"name": "batch_normalization_300/moving_mean", "shape": [384], "dtype": "float32"}, {"name": "batch_normalization_300/moving_variance", "shape": [384], "dtype": "float32"}, {"name": "batch_normalization_301/beta", "shape": [192], "dtype": "float32"}, {"name": "batch_normalization_301/moving_mean", "shape": [192], "dtype": "float32"}, {"name": "batch_normalization_301/moving_variance", "shape": [192], "dtype": "float32"}, {"name": "conv2d_216/kernel", "shape": [3, 3, 3, 32], "dtype": "float32"}, {"name": "conv2d_217/kernel", "shape": [3, 3, 32, 32], "dtype": "float32"}, {"name": "conv2d_218/kernel", "shape": [3, 3, 32, 64], "dtype": "float32"}, {"name": "conv2d_219/kernel", "shape": [1, 1, 64, 80], "dtype": "float32"}, {"name": "conv2d_220/kernel", "shape": [3, 3, 80, 192], "dtype": "float32"}, {"name": "conv2d_221/kernel", "shape": [1, 1, 192, 64], "dtype": "float32"}, {"name": "conv2d_222/kernel", "shape": [1, 1, 192, 48], "dtype": "float32"}, {"name": "conv2d_223/kernel", "shape": [5, 5, 48, 64], "dtype": "float32"}, {"name": "conv2d_224/kernel", "shape": [1, 1, 192, 64], "dtype": "float32"}, {"name": "conv2d_225/kernel", "shape": [3, 3, 64, 96], "dtype": "float32"}, {"name": "conv2d_226/kernel", "shape": [3, 3, 96, 96], "dtype": "float32"}, {"name": "conv2d_227/kernel", "shape": [1, 1, 192, 32], "dtype": "float32"}, {"name": "conv2d_228/kernel", "shape": [1, 1, 256, 64], "dtype": "float32"}, {"name": "conv2d_229/kernel", "shape": [1, 1, 256, 48], "dtype": "float32"}, {"name": "conv2d_230/kernel", "shape": [5, 5, 48, 64], "dtype": "float32"}, {"name": "conv2d_231/kernel", "shape": [1, 1, 256, 64], "dtype": "float32"}, {"name": "conv2d_232/kernel", "shape": [3, 3, 64, 96], "dtype": "float32"}, {"name": "conv2d_233/kernel", "shape": [3, 3, 96, 96], "dtype": "float32"}, {"name": "conv2d_234/kernel", "shape": [1, 1, 256, 64], "dtype": "float32"}, {"name": "conv2d_235/kernel", "shape": [1, 1, 288, 64], "dtype": "float32"}, {"name": "conv2d_236/kernel", "shape": [1, 1, 288, 48], "dtype": "float32"}, {"name": "conv2d_237/kernel", "shape": [5, 5, 48, 64], "dtype": "float32"}, {"name": "conv2d_238/kernel", "shape": [1, 1, 288, 64], "dtype": "float32"}, {"name": "conv2d_239/kernel", "shape": [3, 3, 64, 96], "dtype": "float32"}, {"name": "conv2d_240/kernel", "shape": [3, 3, 96, 96], "dtype": "float32"}, {"name": "conv2d_241/kernel", "shape": [1, 1, 288, 64], "dtype": "float32"}, {"name": "conv2d_242/kernel", "shape": [3, 3, 288, 384], "dtype": "float32"}, {"name": "conv2d_243/kernel", "shape": [1, 1, 288, 64], "dtype": "float32"}, {"name": "conv2d_244/kernel", "shape": [3, 3, 64, 96], "dtype": "float32"}, {"name": "conv2d_245/kernel", "shape": [3, 3, 96, 96], "dtype": "float32"}, {"name": "conv2d_246/kernel", "shape": [1, 1, 768, 192], "dtype": "float32"}, {"name": "conv2d_247/kernel", "shape": [1, 1, 768, 128], "dtype": "float32"}, {"name": "conv2d_248/kernel", "shape": [1, 7, 128, 128], "dtype": "float32"}, {"name": "conv2d_249/kernel", "shape": [7, 1, 128, 192], "dtype": "float32"}, {"name": "conv2d_250/kernel", "shape": [1, 1, 768, 128], "dtype": "float32"}, {"name": "conv2d_251/kernel", "shape": [7, 1, 128, 128], "dtype": "float32"}, {"name": "conv2d_252/kernel", "shape": [1, 7, 128, 128], "dtype": "float32"}, {"name": "conv2d_253/kernel", "shape": [7, 1, 128, 128], "dtype": "float32"}, {"name": "conv2d_254/kernel", "shape": [1, 7, 128, 192], "dtype": "float32"}, {"name": "conv2d_255/kernel", "shape": [1, 1, 768, 192], "dtype": "float32"}, {"name": "conv2d_256/kernel", "shape": [1, 1, 768, 192], "dtype": "float32"}, {"name": "conv2d_257/kernel", "shape": [1, 1, 768, 160], "dtype": "float32"}, {"name": "conv2d_258/kernel", "shape": [1, 7, 160, 160], "dtype": "float32"}, {"name": "conv2d_259/kernel", "shape": [7, 1, 160, 192], "dtype": "float32"}, {"name": "conv2d_260/kernel", "shape": [1, 1, 768, 160], "dtype": "float32"}, {"name": "conv2d_261/kernel", "shape": [7, 1, 160, 160], "dtype": "float32"}, {"name": "conv2d_262/kernel", "shape": [1, 7, 160, 160], "dtype": "float32"}, {"name": "conv2d_263/kernel", "shape": [7, 1, 160, 160], "dtype": "float32"}, {"name": "conv2d_264/kernel", "shape": [1, 7, 160, 192], "dtype": "float32"}, {"name": "conv2d_265/kernel", "shape": [1, 1, 768, 192], "dtype": "float32"}, {"name": "conv2d_266/kernel", "shape": [1, 1, 768, 192], "dtype": "float32"}, {"name": "conv2d_267/kernel", "shape": [1, 1, 768, 160], "dtype": "float32"}, {"name": "conv2d_268/kernel", "shape": [1, 7, 160, 160], "dtype": "float32"}, {"name": "conv2d_269/kernel", "shape": [7, 1, 160, 192], "dtype": "float32"}, {"name": "conv2d_270/kernel", "shape": [1, 1, 768, 160], "dtype": "float32"}, {"name": "conv2d_271/kernel", "shape": [7, 1, 160, 160], "dtype": "float32"}, {"name": "conv2d_272/kernel", "shape": [1, 7, 160, 160], "dtype": "float32"}, {"name": "conv2d_273/kernel", "shape": [7, 1, 160, 160], "dtype": "float32"}, {"name": "conv2d_274/kernel", "shape": [1, 7, 160, 192], "dtype": "float32"}, {"name": "conv2d_275/kernel", "shape": [1, 1, 768, 192], "dtype": "float32"}, {"name": "conv2d_276/kernel", "shape": [1, 1, 768, 192], "dtype": "float32"}, {"name": "conv2d_277/kernel", "shape": [1, 1, 768, 192], "dtype": "float32"}, {"name": "conv2d_278/kernel", "shape": [1, 7, 192, 192], "dtype": "float32"}, {"name": "conv2d_279/kernel", "shape": [7, 1, 192, 192], "dtype": "float32"}, {"name": "conv2d_280/kernel", "shape": [1, 1, 768, 192], "dtype": "float32"}, {"name": "conv2d_281/kernel", "shape": [7, 1, 192, 192], "dtype": "float32"}, {"name": "conv2d_282/kernel", "shape": [1, 7, 192, 192], "dtype": "float32"}, {"name": "conv2d_283/kernel", "shape": [7, 1, 192, 192], "dtype": "float32"}, {"name": "conv2d_284/kernel", "shape": [1, 7, 192, 192], "dtype": "float32"}, {"name": "conv2d_285/kernel", "shape": [1, 1, 768, 192], "dtype": "float32"}, {"name": "conv2d_286/kernel", "shape": [1, 1, 768, 192], "dtype": "float32"}, {"name": "conv2d_287/kernel", "shape": [3, 3, 192, 320], "dtype": "float32"}, {"name": "conv2d_288/kernel", "shape": [1, 1, 768, 192], "dtype": "float32"}, {"name": "conv2d_289/kernel", "shape": [1, 7, 192, 192], "dtype": "float32"}, {"name": "conv2d_290/kernel", "shape": [7, 1, 192, 192], "dtype": "float32"}, {"name": "conv2d_291/kernel", "shape": [3, 3, 192, 192], "dtype": "float32"}, {"name": "conv2d_292/kernel", "shape": [1, 1, 1280, 320], "dtype": "float32"}, {"name": "conv2d_293/kernel", "shape": [1, 1, 1280, 384], "dtype": "float32"}, {"name": "conv2d_294/kernel", "shape": [1, 3, 384, 384], "dtype": "float32"}, {"name": "conv2d_295/kernel", "shape": [3, 1, 384, 384], "dtype": "float32"}, {"name": "conv2d_296/kernel", "shape": [1, 1, 1280, 448], "dtype": "float32"}, {"name": "conv2d_297/kernel", "shape": [3, 3, 448, 384], "dtype": "float32"}, {"name": "conv2d_298/kernel", "shape": [1, 3, 384, 384], "dtype": "float32"}, {"name": "conv2d_299/kernel", "shape": [3, 1, 384, 384], "dtype": "float32"}, {"name": "conv2d_300/kernel", "shape": [1, 1, 1280, 192], "dtype": "float32"}, {"name": "conv2d_301/kernel", "shape": [1, 1, 2048, 320], "dtype": "float32"}, {"name": "conv2d_302/kernel", "shape": [1, 1, 2048, 384], "dtype": "float32"}, {"name": "conv2d_303/kernel", "shape": [1, 3, 384, 384], "dtype": "float32"}, {"name": "conv2d_304/kernel", "shape": [3, 1, 384, 384], "dtype": "float32"}, {"name": "conv2d_305/kernel", "shape": [1, 1, 2048, 448], "dtype": "float32"}, {"name": "conv2d_306/kernel", "shape": [3, 3, 448, 384], "dtype": "float32"}, {"name": "conv2d_307/kernel", "shape": [1, 3, 384, 384], "dtype": "float32"}, {"name": "conv2d_308/kernel", "shape": [3, 1, 384, 384], "dtype": "float32"}, {"name": "conv2d_309/kernel", "shape": [1, 1, 2048, 192], "dtype": "float32"}, {"name": "dense_2/kernel", "shape": [1000, 3], "dtype": "float32"}, {"name": "dense_2/bias", "shape": [3], "dtype": "float32"}, {"name": "predictions/kernel", "shape": [2048, 1000], "dtype": "float32"}, {"name": "predictions/bias", "shape": [1000], "dtype": "float32"}]}]}